trained/d_state_dict.pt (torch_old, 693865 bytes, 9 tensors)

0.weight f4 [16, 1, 4, 4]
000000 6c e2 a8 bd 61 28 86 3c a6 39 fb 3d d5 a6 35 3e
       -0.082463115 0.016376676 0.12266855 0.17739423
000010 17 0d 90 3c f4 d6 19 bd 70 1c 94 be db ce 9d bd
       0.017584367 -0.03755851 -0.28927946 -0.0770547
000020 bb 41 c8 bd 04 b4 98 3b ec 9a 8d be eb 0f d1 3d
       -0.09778162 0.0046601314 -0.2765726 0.10208114
000030 85 03 b5 3b 52 22 3f 3d 0d 3f 89 be b6 c8 8c 3e
       0.005524101 0.04666359 -0.26805916 0.2749688
000040 99 60 5a bb c7 b2 4b 3e 4d 04 16 3e 0e 96 ff 3d
       -0.0033321737 0.19892417 0.14650078 0.124797925
000050 4a 1f 38 3e ce 8a 65 bd c3 dc 81 be 82 ab 47 bd
       0.17980686 -0.056040578 -0.2536374 -0.048747547
000060 2c d0 22 3d a3 72 68 be c1 f5 27 be cd 13 0d bd
       0.03974931 -0.2269998 -0.16402341 -0.03444271
000070 5a 18 11 3d 92 10 23 bd e1 bf 1f bb ed a1 6f 3d
       0.035423614 -0.039810725 -0.0024375843 0.058504034
000080 8a c8 4b bd 5c 87 87 bd f6 14 a0 bd 3b fd 09 3e
       -0.049751796 -0.066176146 -0.07816498 0.13475506
000090 58 ad 76 bd af 89 23 be 1d 15 07 be 19 ba 87 3c
       -0.060223907 -0.15970491 -0.13191648 0.01656823
0000a0 f9 08 22 be cf ea 91 be f4 d8 83 bd 0c 01 2d bb
       -0.15823735 -0.28499457 -0.06437865 -0.002639833
0000b0 d3 d8 4b bc 25 a8 df bd 5e ae ea bd a6 f6 07 3d
       -0.012441832 -0.10920743 -0.11459039 0.033194207
0000c0 e2 ea 7d 3d e2 64 66 bc 42 12 c1 3d 8d a4 8c 3c
       0.06199158 -0.014062138 0.094273105 0.017168308
0000d0 39 2f a1 bd aa ff 2e be 5e d9 17 be 3c 9d 3b be
       -0.07870335 -0.17089716 -0.14829013 -0.18321699
0000e0 16 e3 eb 3d 23 60 45 3e 46 bc 94 3e 40 24 fb 3d
       0.115179226 0.19274954 0.2904989 0.122627735
0000f0 ac 12 1a bc cf 76 50 be d6 bf 96 bd 02 54 80 bd
       -0.009403866 -0.20357822 -0.073608086 -0.06266023
000100 63 d7 ac bc 83 0b 46 3c f4 eb 8a 3c 50 3a 33 3d
       -0.021098798 0.012087706 0.016958214 0.043756783
000110 fd 1b f3 bb dd 38 40 3c 17 43 85 bd 25 42 3c 3c
       -0.007419108 0.011732307 -0.06506937 0.011490379
000120 74 c3 c7 3d f5 73 47 3e ec dd 3c be 74 53 50 bc
       0.097540766 0.19477828 -0.18444031 -0.012715209
000130 f4 9f c3 3d 24 23 98 3e 7b 22 80 bd 8b 3c d8 bd
       0.09551993 0.2971431 -0.06256577 -0.10558423
000140 74 a8 d4 3d 8c 93 94 3c 13 ba b1 3c 95 b8 5e bc
       0.103836924 0.018136762 0.021695172 -0.0135938125
000150 40 cc bf be d0 41 a9 bd 94 0f df bd 2a 83 03 3d
       -0.37460518 -0.08264506 -0.10891643 0.03210751
000160 ad 67 1b be 39 68 d0 3d 55 26 8c 3b 9a 5e fe bd
       -0.15176268 0.10176129 0.0042770305 -0.124203876
000170 8d 0c b8 3d 19 10 16 be 3b cf 11 bd ac e1 52 be
       0.08986769 -0.14654578 -0.03559802 -0.205939
000180 a5 14 64 3d 3b 1f b7 3c 16 1d a2 3b dc 02 3c bd
       0.05568375 0.022353759 0.004947315 -0.045901164
000190 37 07 da bd db 6b 89 be 66 68 91 be ae 11 6d bd
       -0.10645907 -0.268401 -0.28399962 -0.05787819
0001a0 97 ba 48 3c 0e e8 f6 bd fc 7f 41 bd e5 46 64 3e
       0.012251518 -0.1205598 -0.047241196 0.22292669
0001b0 74 42 e0 3d b5 65 3f 3e 08 0a 3a 3e 58 af 1b bb
       0.10950175 0.18691142 0.18167889 -0.0023755636
0001c0 da f8 d2 bd 2c f5 f5 3d 1f 41 17 be a0 ce d8 3d
       -0.10301371 0.120096534 -0.14770935 0.105862856
0001d0 53 01 6e 3e 6b 54 47 be 4c 9e fe bd 11 f1 f0 bd
       0.23242693 -0.19465797 -0.124325365 -0.1176473
0001e0 3a 60 aa bc 58 f5 8b be 5f 81 08 3e ce 47 91 3c
       -0.020797838 -0.2733562 0.13330601 0.017734434
0001f0 10 06 99 3d 56 b5 85 bd f9 26 c9 bd a5 09 31 be
       0.074718595 -0.06528728 -0.098218866 -0.17288835
000200 4a 67 ef bc 62 f7 85 3d 1c 31 9b 3c 7d 0b 9d bd
       -0.029224057 0.06541325 0.018944316 -0.07668207
000210 61 30 5c 3e 22 df ec 3e 83 db ed 3c 3a 6c 98 3d
       0.2150283 0.46263987 0.029035335 0.074425176
000220 18 29 0b be 80 0e b8 be 3c d7 8a bd 47 d1 4c bd
       -0.13589895 -0.35948563 -0.06779334 -0.05000427
000230 16 82 be 3c 9b 9f 18 be 01 b7 0b 3e 7f ce d7 3c
       0.02325539 -0.14904635 0.13644029 0.026343582
000240 db ca b4 bd 9a 4b 79 be 6e 2d 47 bd 11 40 e8 bc
       -0.08827754 -0.24345246 -0.04862731 -0.028350862
000250 d7 02 f0 bd bb c2 af 3d 9e 3f 42 be de 2e 56 3e
       -0.11719292 0.08582064 -0.1896958 0.20916316
000260 ea ca b4 bd 8b d0 5e be a6 58 86 bc 6f 43 17 be
       -0.08827765 -0.2175924 -0.016399693 -0.14771818
000270 86 49 0b 3d 05 75 0c be 38 8f 8b 3d 30 bd d0 3d
       0.034005664 -0.13716514 0.06814426 0.10192335
000280 5f cf 9a bd cd da 89 3c 24 72 a3 3c 20 4f d7 bb
       -0.07559084 0.016827965 0.019951887 -0.0065707117
000290 8c e4 ec bc 97 f0 61 3c d8 82 86 b9 b6 86 d1 3d
       -0.028917573 0.013790271 -0.00025655958 0.10230772
0002a0 b8 72 ba 3e bf c1 66 3d 82 f0 42 be 25 5b 95 b9
       0.36415648 0.056337114 -0.19037059 -0.00028487403
0002b0 48 d8 5e 3d 50 76 1d be c2 e5 b4 bc ce a1 7d 3e
       0.05440548 -0.15377164 -0.022082213 0.24768755
0002c0 97 d6 9d bd ad 15 e8 bd 6e ec 4e be 81 61 43 bd
       -0.077069454 -0.11332259 -0.20207378 -0.04770041
0002d0 a7 31 07 bd 5e e9 c2 3e 17 bf da 3e a8 c8 a1 3d
       -0.033006337 0.3806867 0.42723915 0.078996
0002e0 83 33 58 be 9d f6 65 3c 52 4a 8e be 1c 6f 86 be
       -0.211134 0.014035848 -0.27791077 -0.26256645
0002f0 ca 9d e2 3c e4 fa d7 3d 5b 6f 5a bc 91 8f a6 3d
       0.02766313 0.105459005 -0.013332213 0.08132852
000300 32 5e 6e 3d 74 a5 24 be 29 36 15 be c5 45 88 3d
       0.0581953 -0.1607874 -0.14571442 0.066539325
000310 d6 0d 99 bd f6 67 69 3e ca b5 b6 bd 91 91 80 3d
       -0.07473342 0.22793564 -0.08921392 0.062777646
000320 ac 0d a3 bd 82 8e c0 be 62 60 5e be 77 e7 02 3e
       -0.07961592 -0.37608725 -0.21716455 0.1278361
000330 f3 c5 48 bc 24 41 ce 3d 78 d3 dc 3d a5 b1 a4 bd
       -0.012254226 0.10071018 0.10782522 -0.080416955
000340 01 92 97 bd 7a 30 2e bc bb c9 f4 bc b6 68 fb 3c
       -0.07400895 -0.010631675 -0.029881349 0.030689579
000350 19 c6 67 bc cb 30 26 3e b9 5d 08 bd 51 0d bf 3a
       -0.014146351 0.1622955 -0.033292506 0.0014576112
000360 9f a0 25 bd f1 9b 49 3e 2f ce 22 be d1 22 72 3d
       -0.040436383 0.19688393 -0.15898965 0.059115235
000370 23 ad 5a bd 71 a8 00 3e 75 dd dc bd 84 0b f3 3d
       -0.053387772 0.12564255 -0.10784427 0.11867431
000380 12 73 55 3d 42 0d e2 bd 2a fc ed 3d 5c 4a 90 bd
       0.052111693 -0.11037685 0.11620362 -0.07045433
000390 24 40 06 3e 04 4d 41 be b9 2c 83 3e 8e 49 5d bd
       0.13110405 -0.18877035 0.25620058 -0.054025225
0003a0 c3 00 7f 3d 62 71 78 be a3 1c 2d 3e 0e 8e ba bd
       0.062256586 -0.24262002 0.16905455 -0.09109126
0003b0 77 10 d5 3d a4 70 c2 bd 40 ed c1 3d e3 32 5b 3c
       0.10403531 -0.09494141 0.0946908 0.013378832
0003c0 a2 4f cd 3a f6 70 b9 bd 74 bc d6 bb dc 88 12 3d
       0.0015663991 -0.09054749 -0.006553227 0.03577505
0003d0 29 7c cc 3d 89 c0 7d be 23 a5 87 bd b7 3d 08 3d
       0.09984619 -0.24780478 -0.06623294 0.03326198
0003e0 c6 76 59 3e df 05 13 be 41 d1 43 be 41 8b 1f bd
       0.21236715 -0.14357708 -0.19122793 -0.038951162
0003f0 5a dc c7 3d 5f 9e 02 3e 73 62 db 3d 8a bc 01 bd
       0.097588256 0.12755726 0.10712137 -0.031673945

0.bias f4 [16]
000000 b2 8b ca bd ba 43 db bc b4 de 61 3e 74 5e 83 3d
       -0.09889926 -0.026765693 0.22057611 0.064145
000010 ac e0 56 be 94 20 0e 3e 26 96 4c 3d 05 42 a8 3d
       -0.20984143 0.13879615 0.04994788 0.08215717
000020 f4 5a 0f be 68 3d 04 be 22 c6 10 be a5 73 0d 3e
       -0.1399954 -0.1291405 -0.14138082 0.13813646
000030 f2 24 32 3d 67 4a 9d bd 40 e0 49 3d 95 98 0a 3d
       0.043492265 -0.07680207 0.049286127 0.03383692

2.weight f4 [32, 16, 4, 4]
000000 06 03 af 3d 4b 81 ae 3d a4 41 d8 3c 97 88 19 be
       0.085454985 0.085207544 0.026398487 -0.14993511
000010 1a 47 22 3d 06 d1 21 3d f0 f2 bc 3d 82 8c b1 3d
       0.03961859 0.03950598 0.09226024 0.08669378
000020 7e e3 2c be 51 f9 8e bd 00 5e cf 3d 30 eb 4b 3e
       -0.16883656 -0.06981147 0.10125351 0.19913936
000030 67 36 bc bc f9 c9 79 bd 1c 4d 67 3d dd 70 49 3d
       -0.02297516 -0.06098363 0.05647002 0.0491799
000040 09 4f 77 3d d5 fd ae 3c 12 83 af bd 7d 74 ba bd
       0.06037811 0.02136127 -0.085699216 -0.091042496
000050 ec 32 e4 3d d6 21 85 3e 86 57 81 3e e9 43 01 be
       0.11142525 0.26002377 0.25262088 -0.12623562
000060 1d 0d 69 be f9 6c 92 be 19 8b 7d 3d a9 1b ae bd
       -0.22758909 -0.28598765 0.061900232 -0.085013695
000070 75 48 61 bd 92 b1 6d bd 25 3e e0 bc 26 4b bc 3c
       -0.05500074 -0.058030672 -0.027373383 0.022985052
000080 7e e2 ef 3d ec 42 80 3c 40 01 3b bd 69 35 ef bb
       0.11713122 0.01565691 -0.04565549 -0.007300068
000090 51 94 67 bd b8 97 46 bd e0 e6 eb 3d af d4 c7 3c
       -0.05653793 -0.048484534 0.11518645 0.024393408
0000a0 56 4d ac 3d 62 9e b5 3d 4c e7 2e 3c d5 2d 37 bd
       0.08413188 0.088681 0.010675263 -0.044721443
0000b0 7f fa 78 bd 89 0d 91 bd a8 60 d8 3c 9f 5a de 3d
       -0.060785767 -0.0708266 0.026413277 0.10857128
0000c0 3a a4 fa bd 06 82 87 3d df ef fa bd 46 8e 3d bb
       -0.12238355 0.06616597 -0.12252783 -0.0028923913
0000d0 99 ec eb 3d a4 3b 01 3e 89 91 20 bb 47 28 06 3e
       0.11519737 0.12620407 -0.0024500808 0.13101302
0000e0 38 52 09 3c 18 87 39 bd 3e a9 15 3e 53 a7 5d 3d
       0.008381419 -0.04529485 0.14615342 0.05411465
0000f0 ce 81 42 bc 94 1a 66 3d d3 c3 a3 bc 80 d5 11 3d
       -0.011871768 0.05617769 -0.019990837 0.035604
000100 89 8f f5 3d 85 3a bf bd 4b 96 cf 3d d5 de 5a be
       0.11990268 -0.093373336 0.10136088 -0.21374066
000110 3a 64 8d 3e 38 ff a0 3e 9a f2 9e 3e 32 52 96 3c
       0.2761553 0.31444716 0.31044465 0.01834974
000120 1f d9 f5 bd d9 a9 46 3e 23 a5 93 3e 3e fc 9b 3e
       -0.12004303 0.19400729 0.28836927 0.30465883
000130 ec 54 cf bd 0a c6 70 3d 51 dd e5 3d dc 8c 89 3e
       -0.101236194 0.058782615 0.112238534 0.2686528
000140 4e cc 43 bc dc 20 38 3a d2 7d 4c bd 40 0c b3 bd
       -0.0119505655 0.00070239394 -0.04992468 -0.08742571
000150 92 d0 c2 bd 71 79 bf 3d ac e8 ad 3d 9b fc fc 3c
       -0.09512438 0.09349335 0.08491644 0.03088217
000160 82 e5 cf bd 7f 95 13 bc 8a 72 9f bd 99 d9 f4 bb
       -0.10151197 -0.009007811 -0.077855185 -0.0074722287
000170 26 c2 29 bc 96 f6 6b 3d 8b 2b fc 3c ff ef 90 3c
       -0.01036123 0.05760821 0.030782482 0.017692564
000180 77 60 0c 3d a6 0f 52 bd 23 b2 e7 3d a7 ad 04 bd
       0.034271684 -0.051284455 0.11313274 -0.03239217
000190 85 37 23 3e 4f 37 b4 3d 94 9f fa bd 7d 29 ce bc
       0.15939148 0.08799612 -0.12237468 -0.025166268
0001a0 6f 17 80 be 44 0b 7c bd 87 e8 9b 3c 93 5b 28 bc
       -0.25017878 -0.06153418 0.019031776 -0.010275739
0001b0 5b 4f 60 be e4 8a f7 bd 9f 79 86 bb c8 0f 0d 3d
       -0.21905272 -0.12087038 -0.004103854 0.03443888
0001c0 75 20 10 3d fa 9a 28 3d 62 bb 53 be f5 d4 70 3d
       0.035187203 0.041163422 -0.2067695 0.05879684
0001d0 f3 70 d7 bc cb 55 c8 3d 0e 86 d5 3d a7 12 62 bd
       -0.026298976 0.09781989 0.104259595 -0.05519357
0001e0 ba c2 bd bc 33 88 04 3d 3b c1 9b 3d 83 6a 44 bd
       -0.023164142 0.032356452 0.07605215 -0.04795314
0001f0 25 31 1c be 8d 38 45 3d 75 e3 5a 3c d8 92 0f bd
       -0.15253122 0.048149634 0.013359894 -0.03505215
000200 97 15 35 bd ac b0 df 3d 3f c2 33 3d d6 b7 a6 3c
       -0.044210043 0.10922369 0.04388642 0.020351332
000210 21 e4 79 bd 4f 58 ba bc 12 1a 0e 3e 2b 37 7d bc
       -0.061008576 -0.022747187 0.13877133 -0.015455048
000220 6a 6e c4 3d e1 ee 64 be 41 18 3a 3d b4 19 2c 3d
       0.09591372 -0.2235675 0.045433287 0.0420167
000230 30 7c 04 3d 34 83 ac 3d 2c 0b c1 bd 27 3d d0 3c
       0.032344997 0.084234625 -0.09425959 0.025419785
000240 f9 ee ac 3d a9 f6 3e 3c 58 f9 9b bc 8b 50 2e 3d
       0.08444018 0.011655488 -0.019039795 0.04255728
000250 3c 5b 65 bc 0f f8 44 3d 1f 18 b8 3d 75 c9 31 3c
       -0.013998803 0.04808813 0.08988976 0.010851254
000260 2e 3c af bd 45 a5 f0 3d 12 56 9b 3c 96 3a b9 3d
       -0.085564 0.11750273 0.01896194 0.090443775
000270 bb 0a a8 bd 64 97 38 3d 0d 99 9e 3d 3e 51 05 3d
       -0.08205172 0.045066252 0.07744036 0.03254818
000280 40 c1 b7 3d 45 ab 1b 3e 4e 7d c6 3c 30 66 d3 3d
       0.089724064 0.15202053 0.024229672 0.10322225
000290 bb 51 eb 3d 8b 62 1b 3e e9 e8 4f be 47 cd f7 3b
       0.11490198 0.1517431 -0.20303692 0.0075623128
0002a0 f0 68 d4 bd 83 45 30 be 05 74 27 bd 85 c5 48 3d
       -0.10371578 -0.17214017 -0.04088213 0.049016494
0002b0 3f dd ed bd 6b 65 b0 bd f8 50 32 bc bc ed 0a 3e
       -0.11614465 -0.08613094 -0.010883562 0.13567251
0002c0 32 cd 87 3a 2e 65 80 3d e9 30 8c bd e0 81 fd 3c
       0.0010360836 0.062692985 -0.06845266 0.030945718
0002d0 ad cf 8e 3c 42 cc a1 3c 91 f9 3c 3d 82 41 3b 3d
       0.017433012 0.019750718 0.046136443 0.04571677
0002e0 81 da 8f 3b a2 36 25 bd 06 21 cd 3d 57 53 e2 3c
       0.0043900614 -0.040335305 0.10016064 0.02762763
0002f0 91 2d 8c bd 99 a4 1d bd c3 29 bb 3d 71 ea 13 3d
       -0.068446286 -0.03848705 0.09138825 0.036112253
000300 f5 b6 a3 bd b4 a9 39 3e 70 66 99 3c e6 8a 92 bd
       -0.07993881 0.18131143 0.018725604 -0.07155399
000310 8f e3 28 3e 16 de 41 3a dc be 31 bd 08 e9 0a be
       0.16493057 0.0007395459 -0.04339491 -0.13565457
000320 cf 77 1f 3c 2f a7 ce 3d 85 6a 6c 3e 50 64 ea 3d
       0.009733154 0.100904815 0.23087509 0.11444914
000330 d1 7e 7d 3d 61 e6 d3 bd 92 c5 07 bd 87 87 0c be
       0.06188852 -0.10346676 -0.033147402 -0.13723575
000340 73 d2 ce bd 2b 61 0f bd da c8 fa 3d a5 3c ff bc
       -0.10098734 -0.035004776 0.12245341 -0.031156847
000350 ad 7d 7c bd 45 31 dd 3d a4 a9 ea 3c 0e 59 55 3d
       -0.06164329 0.10800413 0.028645344 0.052086882
000360 b4 dc b7 bd 12 af 50 3d f0 47 c9 3d 8a 3d 65 bb
       -0.08977643 0.05094821 0.09828174 -0.0034979307
000370 6b cf 15 bc f0 70 8e 3d 3a 50 8d 3d d8 7d c9 3a
       -0.009143691 0.06955135 0.069000676 0.0015372587
000380 85 a3 cb 3c 10 86 3b 3d d9 df c7 3d 02 d9 f5 bd
       0.024858246 0.04578215 0.097594924 -0.120042816
000390 61 8d 15 bd a2 21 ef bb 80 65 71 3e 83 c6 04 be
       -0.036511783 -0.0072977105 0.23573875 -0.12966351
0003a0 93 32 1d be 21 bc 5d be cc 77 a9 bc 2d b6 f3 3c
       -0.15351324 -0.21653797 -0.020687006 0.029749954
0003b0 3a d4 45 bb 32 fc d3 3d ab 0a 07 bb d4 d1 10 3e
       -0.0030186311 0.10350837 -0.0020605724 0.14142543
0003c0 56 9c 1a 3d 9b c8 08 3e e5 55 56 bd 81 26 1d 3d
       0.03774675 0.13357775 -0.05232801 0.0383668
0003d0 78 18 e7 3d f5 bf 67 3e af 23 5c 3d 09 7d 8c 3b
       0.11283964 0.2263182 0.053744968 0.0042873663
0003e0 a7 a6 cc bd 90 ec 48 3e 89 28 14 3d 4b c1 82 3d
       -0.09992724 0.19621491 0.03617147 0.06384524
0003f0 d7 43 e8 3d 5d 70 f0 3d 55 ee 2c bc 35 56 c9 3c
       0.113410644 0.117401816 -0.01055487 0.02457724

2.bias f4 [32]
000000 d3 a5 85 bc 10 9e 57 bc 22 17 ad 3d 61 63 a5 3c
       -0.016314423 -0.013160244 0.08451678 0.02018899
000010 77 2b f5 bd 4d 5e a2 bd d8 7e 6d bd 0b df 55 3d
       -0.11971181 -0.07928143 -0.057982296 0.052214663
000020 c3 fd 98 3c 48 81 83 bd 9a f0 c4 bc f4 8e 2b bd
       0.01867569 -0.06421143 -0.024040509 -0.041884378
000030 73 98 54 bd 74 06 00 3e 35 70 b0 bd 5a 46 39 bd
       -0.0519032 0.12502462 -0.08615152 -0.045233108
000040 bb bd 9a bd 65 2c 6f 3d 62 fa 09 3d b1 be ce bc
       -0.075557195 0.058391947 0.03368605 -0.025237413
000050 e0 f7 23 bc f4 a7 08 bd bf 6f 82 bc a7 7d ea ba
       -0.0100078285 -0.033363298 -0.015922425 -0.001789023
000060 fa d2 5f bd e6 c6 96 bd 74 c3 b8 bd a6 1e 2e bd
       -0.054644562 -0.073621556 -0.09021655 -0.042509697
000070 28 52 dd bd 76 e4 56 bd e8 8d ba bd e7 1e c1 3d
       -0.10806686 -0.05246397 -0.09109098 0.09429722

4.weight f4 [64, 32, 4, 4]
000000 fd e1 28 bd d9 f7 9d bd a3 e5 94 3d 34 82 8c 3e
       -0.041231144 -0.07713289 0.07270362 0.27443087
000010 0d 6d 3a bd 9d a3 a8 bc 01 cf a6 3d e6 9d 3d 3d
       -0.045514155 -0.02058583 0.081449516 0.04629316
000020 f7 fb c0 bd 93 21 41 bd 54 9b 30 3d 96 48 45 3d
       -0.094230585 -0.04715116 0.043116882 0.048164926
000030 37 df 93 3b 91 35 40 be 38 f9 28 3d bb ec 7b 3d
       0.0045126933 -0.18770434 0.0412533 0.06150506
000040 ca 8a 9f bc a7 d5 49 bc b2 43 4f bb 19 5b 49 3d
       -0.01947536 -0.012319005 -0.0031626043 0.049159143
000050 48 30 11 bd 79 83 21 3e 99 5d 1f bd 60 fe d2 bd
       -0.035446435 0.15772809 -0.03890762 -0.103024244
000060 9c 58 d8 3a 22 bf 09 3e 87 c4 40 bd 24 9f d5 bb
       0.00165059 0.13451818 -0.047062423 -0.006519215
000070 dd fc 1f 3d dd c5 4a 3e e8 93 9e 3d c6 8c 92 3d
       0.03905951 0.19802041 0.07743055 0.07155757
000080 89 26 74 3c 7e 42 c7 3c 5c 34 30 3d 8a 3a 34 bd
       0.014901766 0.024323698 0.043018684 -0.04400114
000090 6b 30 f1 bc 79 bc 01 bd 83 9b 93 bd 92 6b d2 3c
       -0.029442033 -0.031673882 -0.07207396 0.02568606
0000a0 79 f0 af bd b5 8d d0 3d 30 70 a1 3d 89 17 96 3d
       -0.085907884 0.101832785 0.07882726 0.07328708
0000b0 0e 35 18 bd 40 68 bd bc f5 40 0e bd 71 6f db 3c
       -0.037159972 -0.023121 -0.034729917 0.026786538
0000c0 49 76 5c bc f8 e7 1d 3d 59 47 97 bc 6b 84 ed 3d
       -0.013455936 0.0385513 -0.018466638 0.11597522
0000d0 44 fd 00 3d b4 4a 1a 3d 8e 1d ed 3d fe 82 f0 3d
       0.031491533 0.0376689 0.11577903 0.11743735
0000e0 ca 64 f1 bb b3 94 c2 bd 8e 47 3e 3e 78 70 22 3d
       -0.0073667513 -0.095010184 0.18581983 0.03965804
0000f0 cb 90 b3 bc 54 b8 1b bd 47 c7 69 3d 60 a6 79 be
       -0.021919629 -0.038017586 0.05707481 -0.24379873
000100 bf cf 10 3c f1 93 d8 bb e1 c9 68 bd 4c c6 36 bd
       0.008838593 -0.006609433 -0.05683315 -0.044622704
000110 c6 e3 25 bd 90 6e 8f bd bd 6a 4e bd 54 27 cd 3d
       -0.040500425 -0.0700351 -0.050394762 0.10017267
000120 c9 e5 95 3d f2 59 e8 bd bd 47 82 bd a1 64 0c 3e
       0.07319219 -0.11345281 -0.06361339 0.13710262
000130 11 54 e9 3d 9f b5 c9 3d 22 81 e9 bd 55 78 1a 3c
       0.113929875 0.098490946 -0.11401583 0.009428103
000140 17 ab 9a 3d e2 c0 cd 3a b7 dc 37 bd 22 a2 81 3d
       0.07552164 0.0015697742 -0.044888224 0.063297525
000150 fe 83 59 3d 76 3a 93 3d ea 9c a3 3d 74 46 aa 3d
       0.053104393 0.07188885 0.07988913 0.08314219
000160 67 fa af bd 09 9a d4 3d bf bf 48 3d a9 ef 29 3d
       -0.08592682 0.103809424 0.04901099 0.041488323
000170 ee 5a 94 bd 69 43 bc 3d 59 b4 23 3e 5d d2 04 bd
       -0.07243906 0.09192545 0.15986766 -0.03242718
000180 2e 1c 5e 3c da db 07 3e 0f b6 bc 3b 98 a2 13 bd
       0.013556523 0.1326746 0.0057590078 -0.036043733
000190 cf 29 22 be 8d 24 aa 3d 18 56 9a bc ea 16 23 3c
       -0.15836261 0.08307753 -0.01883988 0.009954194
0001a0 b3 53 85 3d 8a 1f 8a 3d ed 32 86 bd 98 3d f9 bd
       0.06510105 0.06744297 -0.06552682 -0.12169951
0001b0 dd 84 b0 3c a1 ad bc 3d 6e c4 18 3d f4 8b 1f bc
       0.02154773 0.092128046 0.037296705 -0.009737957
0001c0 67 7e 24 bd 32 87 b1 bc 3c a4 e4 bd 62 14 18 3e
       -0.04015961 -0.021670911 -0.11164138 0.14851525
0001d0 21 f6 0e bd e6 f4 73 bc f7 00 78 bd 97 3b 98 bc
       -0.034902696 -0.014889931 -0.060547795 -0.018583102
0001e0 42 3f 7f 3d d2 4a 73 bd e1 b8 07 be 41 1d ba bc
       0.062316187 -0.059397526 -0.1325412 -0.022719027
0001f0 68 4b c8 bd 54 c0 83 bc d4 3c 0f 3b 78 df 3f bb
       -0.097800076 -0.01608292 0.0021856325 -0.0029277485
000200 fb 23 39 bc dd 96 66 3c d3 c9 c2 3c 65 43 aa 3c
       -0.011300082 0.014074055 0.023777878 0.02078409
000210 cc 77 0d be e7 35 e6 3c 36 c3 86 3c 4a 9f 5f 3d
       -0.1381523 0.028101875 0.016450506 0.05459527
000220 e5 fe 0f be 45 7f c0 bd a0 9c 4e bc 19 b8 af bd
       -0.14062078 -0.09399275 -0.0126105845 -0.08580036
000230 ee c2 f9 bc fa 48 b3 bd cd 20 4b be 1f 43 81 be
       -0.030488458 -0.087541535 -0.19836731 -0.25246522
000240 0d aa 12 3e 35 de e9 ba 43 52 c8 3d 33 b3 86 bd
       0.14322682 -0.0017842712 0.09781315 -0.06577148
000250 2d fa 68 3d 65 26 eb bd 55 18 ae bd 70 91 51 bd
       0.05687921 -0.114819326 -0.08500735 -0.05116409
000260 23 9b 79 bc 27 c5 4f 3c 7e 43 f8 3c f3 dc 91 bc
       -0.015234741 0.012681282 0.03030562 -0.017805552
000270 39 4f ee bc 61 06 99 bd df f2 ae 3c a5 17 2b bd
       -0.02909051 -0.0747192 0.021356044 -0.041770596
000280 de 62 07 3d a1 ef 99 3c 1c ff 30 3d 42 16 92 bd
       0.03305327 0.018791022 0.04321204 -0.071331516
000290 b6 08 59 bd 3e ec 68 bb 2d a3 63 bc 6a 4b 44 bd
       -0.052986823 -0.0035541202 -0.013893885 -0.047923483
0002a0 77 df dc 3d f5 5f 0f be d0 d8 43 3d 94 a2 41 3d
       0.1078481 -0.14001448 0.04781419 0.047274187
0002b0 46 48 b7 3c 0b 1c 97 bc 5a 61 0b 3e fb f6 2c bd
       0.02237333 -0.01844599 0.13611355 -0.042227726
0002c0 3a c2 d6 bc 7e 91 42 bd ed db 8c 3c 14 29 65 3d
       -0.026215661 -0.047502033 0.017194713 0.05594738
0002d0 1e d1 38 bd 28 c5 0a be be 03 e8 bd 8a e9 87 3d
       -0.045121305 -0.13551772 -0.11328839 0.06636341
0002e0 1f f0 82 3d a9 ef c1 bb 13 eb 04 3c c5 5b 96 3c
       0.06393456 -0.0059184623 0.008112687 0.018354306
0002f0 20 60 54 bc f6 3b c1 3d e9 2d cd 3d 00 34 4c bd
       -0.012962371 0.09435265 0.10018522 -0.04985428
000300 27 5a c4 3b 9b 96 3e bd 28 e6 8d bd e9 8c 1a 3d
       0.0059921923 -0.046530347 -0.069286644 0.03773204
000310 ec 7b 80 bd a3 7f 80 3c df 3c 53 3d 9d bd 6a 3d
       -0.06273636 0.015685862 0.051571723 0.057309736
000320 c0 a2 cf bc 49 3e 03 3d e2 4b 8d bd c7 c3 5c 3c
       -0.02534616 0.03204182 -0.06899239 0.013474411
000330 b8 8d 26 3d f4 8b bf bd da 9e 8f bd c4 a6 3c bb
       0.040662497 -0.09352866 -0.070127204 -0.0028785923
000340 12 78 2d bd 79 ab e2 3d f0 85 af 3d 95 67 b2 bd
       -0.042350836 0.11067862 0.085704684 -0.08711163
000350 2d 44 ff bd b0 7c 69 bd 78 1c a3 3c 29 e2 98 3d
       -0.124641754 -0.057003677 0.019911036 0.074650116
000360 d8 ad 43 bd 9c 9f e3 3d ca 1e 60 3d 60 75 6e bd
       -0.047773212 0.111144274 0.054716863 -0.058217406
000370 1b 40 b7 bd 65 31 51 3d 05 21 e1 bd 72 72 51 bd
       -0.08947774 0.051072497 -0.10992626 -0.051134534
000380 f7 62 70 3d a0 80 3e 3d 6e 55 95 3d 8a c2 69 3d
       0.05868813 0.046509385 0.07291685 0.057070293
000390 76 09 24 be c2 30 1a bd 11 58 d0 3d d5 c3 39 3d
       -0.16019234 -0.037644155 0.10173047 0.045352776
0003a0 8d 30 31 3d ff dd c4 3d 35 12 44 3e e4 22 30 3d
       0.043259192 0.09612655 0.1914757 0.043002024
0003b0 6c 8d 0a 3d b2 6a a0 bd b5 38 65 3b df 85 7f 3c
       0.033826277 -0.078328505 0.0034976427 0.015595882
0003c0 e4 f7 9f bd c0 3a 1b 3d 60 90 ba bd c7 bd ed bb
       -0.07810953 0.037897825 -0.091095686 -0.0072552892
0003d0 06 50 db 3d 88 0f 1c 3c c4 1b e2 ba 19 70 a6 3c
       0.10708623 0.009525187 -0.0017250706 0.020317124
0003e0 ca 90 f6 3d c7 5f 89 3d 9a 26 a3 3d 75 8d ff bc
       0.12039335 0.06707721 0.07966347 -0.031195382
0003f0 45 89 5c 3d 32 f2 9a 3d bf 65 24 bd 25 7a e5 bd
       0.053841848 0.07565726 -0.040136095 -0.11204938

4.bias f4 [64]
000000 33 c9 5b bd 46 20 85 bb 9e d7 28 bd 3f 0d 31 bd
       -0.053658675 -0.004062685 -0.041221254 -0.043225523
000010 43 09 9a bd d7 31 17 bc a0 08 73 bd 46 88 c9 3c
       -0.07521298 -0.009228191 -0.059334397 0.024601113
000020 04 fe cf bd 14 dc 20 bd ac c4 95 3a 9d 88 00 bd
       -0.101558715 -0.039272383 0.0011426411 -0.031380285
000030 1d 8d 61 3b f2 d3 20 3d 95 c3 11 3d 72 0f 6d bd
       0.0034416385 0.039264627 0.035586912 -0.057876058
000040 d1 04 98 bd 9c 7e 11 bd 16 a6 07 be d8 11 82 bb
       -0.07422794 -0.035521135 -0.1324695 -0.0039694123
000050 e1 3a e9 bc 84 be 2b 3d e9 bf 74 bd 25 d6 bf bd
       -0.028470458 0.041929737 -0.059753332 -0.09367017
000060 cf 85 fb bd 78 02 3e 3d fc f8 f4 bd 7b fe 19 bd
       -0.12281381 0.046389073 -0.119615525 -0.037596207
000070 0e 82 a8 bc 80 52 dc 3d 00 d4 ce 3c b4 b0 88 37
       -0.020569827 0.10757923 0.025247574 1.6294747e-05
000080 d7 7c 2a bc 91 4a 2f bd 8a 8b 02 3d 59 85 82 bc
       -0.010405741 -0.04279572 0.031871356 -0.015932726
000090 6e 42 3c 3d 9b 5f 70 3d c1 50 5e bd c8 0f 96 3d
       0.04596179 0.058684926 -0.05427623 0.07327229
0000a0 35 0f 7a 3c 6a 4f 88 3d 54 a9 ef 3c a1 0e 2a bd
       0.015262415 0.06655772 0.029255547 -0.041517857
0000b0 58 ef b4 bb db 94 81 bc 21 f2 0d be dd bb b6 3c
       -0.005521696 -0.01581805 -0.13861896 0.022306377
0000c0 03 7d 75 3c 74 94 04 3d 50 e1 fc bc cc cb b0 3d
       0.014983418 0.03236814 -0.030869156 0.08632621
0000d0 98 c3 c6 bd b4 62 52 bc 35 bc 00 be 18 ff 16 3b
       -0.09705275 -0.0128409155 -0.12571795 0.0023040231
0000e0 e8 34 3a 3d af e4 17 bd 21 d6 4a 3d c9 dc 27 bd
       0.04546061 -0.037083324 0.049520615 -0.04098204
0000f0 42 c7 80 bd 35 e1 8e bb 78 ab c3 3b 4d 0d b4 bc
       -0.062880054 -0.004360343 0.0059713684 -0.021978999

6.weight f4 [128, 64, 4, 4]
000000 db 3f fa 3d 36 0a 90 3c ef 21 2e 3c 65 37 45 bd
       0.12219211 0.017582994 0.010628208 -0.04814853
000010 aa 48 87 3d 25 86 e2 bc a3 26 0a 3e f3 22 29 3c
       0.066056564 -0.027651856 0.13491301 0.010323274
000020 f4 bf 03 be f7 45 c9 3d 43 5a 20 3d c1 69 37 bd
       -0.12866193 0.09827798 0.03914858 -0.04477859
000030 56 35 ca 3c 0f 1e 96 3d 27 be 67 3b ae 18 85 3b
       0.024683636 0.07329952 0.0035361142 0.00406178
000040 3f 3e a2 bd 23 84 01 3e e5 0f 93 3c 53 92 05 3d
       -0.07922029 0.12648062 0.017951915 0.03261025
000050 e4 0d 2d 3d 26 45 88 bc 81 fb 62 bc 81 93 00 3e
       0.042249575 -0.016634535 -0.0138539085 0.12556268
000060 64 77 f6 3c d9 4d 25 3d 0e ab ab 3b 00 70 31 bb
       0.030086227 0.040357444 0.005238897 -0.0027074814
000070 65 ae 37 3d 97 c6 59 3d 57 9e d5 bc a8 55 a4 3c
       0.04484405 0.053167906 -0.026076479 0.020060375
000080 98 7c 40 3d d7 6c 33 bc 45 42 fb bc 82 a7 95 3d
       0.04699382 -0.010951242 -0.030671248 0.0730734
000090 0f e5 8a 3c 66 f7 18 bd c2 2e d2 bb ed 3d ae 3d
       0.016954927 -0.037345313 -0.0064142654 0.08507905
0000a0 01 c8 ab 3c d4 3b eb bc fb 33 0b 3d ed be 85 3b
       0.020969393 -0.028715052 0.03398512 0.004081598
0000b0 61 8b 9f 3d 90 1a 79 bd 1f 89 c0 3c a2 63 25 bc
       0.07790256 -0.060816348 0.023502884 -0.010094555
0000c0 d6 b9 1e 3c 36 d6 80 bd 39 9e 22 bc 67 cb aa 3b
       0.009687861 -0.062908575 -0.0099254185 0.0052122357
0000d0 97 96 70 bb 15 74 31 be 2b f5 e0 3c e4 04 a3 bc
       -0.0036710852 -0.17329438 0.027460655 -0.019899793
0000e0 c5 fb 6e 3d ca dc 6f 3d 52 82 f7 bc ad cd 21 bd
       0.058345575 0.05856017 -0.030213509 -0.03950279
0000f0 2a 77 34 3c 18 72 51 3d a3 c5 27 be 97 5e 46 3c
       0.011014739 0.0511342 -0.16383986 0.012107513
000100 dd db a1 3d 9f 7f be 3c 89 96 1c bc 0b 68 c5 bc
       0.07903264 0.023254214 -0.009557375 -0.024097463
000110 37 cf 42 bd 68 bf a9 3c 6d 2b 49 3e cb d3 da 3d
       -0.047560897 0.020721152 0.19645472 0.106849276
000120 11 95 8d bd 02 9c 5d bd e4 e7 87 bd 09 71 71 bd
       -0.06913198 -0.05410386 -0.066360265 -0.05894569
000130 66 09 30 be 25 27 88 3d 99 cb 6c 3d fd d8 fb ba
       -0.17191085 0.06648091 0.057811353 -0.0019214448
000140 6d 02 9a 3d a6 8c ba bb 9e a5 1a bd 77 bf d6 bc
       0.07519994 -0.005693036 -0.0377556 -0.026214344
000150 4d 0d 09 bb ce c2 0e bd 8e 47 09 3c 06 54 16 be
       -0.002091247 -0.03485375 0.008378876 -0.1468049
000160 2d 09 cc 3b 3f 4c d5 3c 65 ba 62 3c b8 93 29 3d
       0.00622668 0.026037334 0.013838385 0.04140064
000170 37 5c aa 3c 17 b5 9f 3d 62 bc 11 bd 97 96 f5 3b
       0.020795925 0.07798212 -0.035580046 0.0074947583
000180 d0 be b2 3d 83 4e fe bc 94 97 3a 3d 4c c8 a5 3c
       0.08727801 -0.031043297 0.045554712 0.02023711
000190 62 4d 0e 3c f0 19 9c bd c0 25 92 3d fb 25 06 3d
       0.008685442 -0.07622135 0.071361065 0.032751065
0001a0 c1 ab d5 3d ef 91 c3 3d b9 6c 3b 3e db ec 71 3d
       0.1043315 0.09549319 0.18303193 0.059063774
0001b0 1b d7 c8 bc 71 c8 1b bc 80 67 60 3b 47 66 33 bd
       -0.024516633 -0.009508238 0.0034241378 -0.04379871
0001c0 f7 08 42 bd 93 90 87 bc de 39 2b bb 14 cb 06 bd
       -0.04737183 -0.01654843 -0.002612702 -0.032908514
0001d0 dc cb b5 bd a1 52 3e be 45 45 33 be f2 07 55 bb
       -0.08876774 -0.18586208 -0.17506893 -0.0032505956
0001e0 d6 8a 27 bc e3 47 03 3d 88 35 4c bd 41 5e 56 bc
       -0.010225972 0.03205098 -0.04985574 -0.013083995
0001f0 58 15 e5 3b d9 e4 fa 3d 1f 76 0a 3d 54 9e aa 3c
       0.0069910698 0.122506805 0.033804055 0.02082745
000200 5d 77 bc 3d e1 a4 17 3e 74 3d c4 3d 7f eb ca bc
       0.09202454 0.1480899 0.09582034 -0.024770496
000210 a3 1b e0 ba 76 fd 0e bc 2a 41 04 3d 4d 15 30 3d
       -0.001709808 -0.008727422 0.032288708 0.042989064
000220 26 5b b8 3d b4 13 b2 3d b6 f6 09 3c 52 71 81 3d
       0.0900176 0.08695164 0.008420637 0.06320442
000230 78 b2 8e 3b 06 f8 ca 3d 95 c0 4e 3d ee 00 a5 3c
       0.004354771 0.09910588 0.05047663 0.020142045
000240 b2 3a 49 bd 36 1e eb 3c 0f 77 d4 bc c7 b0 6d 3d
       -0.04912824 0.02870093 -0.025935678 0.058029916
000250 6d ef 88 3c e7 ea d4 bc 10 bf c8 bd 8c b0 7b 3d
       0.01671573 -0.025990916 -0.09802067 0.061447665
000260 fc a6 ab 3c 67 d1 ab bc 23 5c 03 bd b2 ec b4 bc
       0.020953648 -0.020973874 -0.03207029 -0.022085521
000270 90 42 8a 3d f4 4e 3e 3d 59 c4 26 3e 56 9e b5 bc
       0.06750977 0.046462014 0.16285838 -0.022170227
000280 31 46 8a 3d 63 96 1f bd d9 e6 c5 3d f5 5f b5 bd
       0.06751669 -0.03896178 0.09663171 -0.08856193
000290 b7 16 8e bb 84 bc ea bd da b9 98 bc 41 47 f2 3c
       -0.004336204 -0.11461738 -0.018643308 0.029574992
0002a0 92 fc 82 bd 06 d8 95 bc b2 1d 8d bd 46 6a b4 bb
       -0.0639583 -0.018291485 -0.068904296 -0.005505833
0002b0 3b cf f5 bd a3 02 08 be 0c ef 8b bd 86 e6 d8 bc
       -0.12002417 -0.13282256 -0.06832704 -0.02647711
0002c0 00 66 04 3d 70 36 08 3e 2f 48 d6 3c 8d 1d 59 bd
       0.032323837 0.13302016 0.026157467 -0.053006697
0002d0 77 30 50 3e 68 94 a4 bd b0 9c 18 be b4 73 ce 3b
       0.20330988 -0.08036119 -0.14903522 0.006300414
0002e0 b4 e0 1e bb 98 8d 5f bc a6 41 43 bd 3e c7 4b bd
       -0.002424282 -0.013644598 -0.04767003 -0.04975056
0002f0 6d b8 f1 3d f0 3f 95 bd 00 01 e8 3d 73 b8 f0 ba
       0.118027546 -0.07287586 0.11328316 -0.0018365517
000300 6c 88 0b 3e 24 2a 92 bc a9 05 e0 3c 76 ed 56 bd
       0.1362626 -0.01784236 0.027346449 -0.052472554
000310 f5 bd 11 3e 36 78 9c bd 6d c0 8c 3d 3e 76 85 bb
       0.14232619 -0.07640116 0.0687264 -0.0040729335
000320 d0 ea b4 3b 79 9c 0b 3e 8e 66 d5 bd 2b dc 73 3d
       0.005521156 0.13633908 -0.104199514 0.05953614
000330 b4 84 d2 bd b4 75 74 bd 40 70 e5 bb 79 aa e6 3c
       -0.10279217 -0.059682563 -0.0070019066 0.02815746
000340 b3 80 f1 bd 13 93 c1 bd 56 1f f2 bd 6b a5 b9 3d
       -0.117921256 -0.0945188 -0.11822383 0.09064754
000350 5e 6f fb 3c 2e a2 b4 3c 9b 40 f1 bc 70 db b2 3c
       0.030692752 0.02204999 -0.029449752 0.021833152
000360 b4 01 05 3d 23 4f de bc 2a 16 dd bd 18 19 14 bd
       0.032472327 -0.027137345 -0.10795243 -0.036156744
000370 d2 a5 6c 3d 1f f9 91 3c 1a 41 8e 3d 15 5d 74 3d
       0.057775326 0.017818986 0.06946011 0.059659082
000380 d9 7f eb 3d f7 3e a6 3d 4b 06 c4 bd 8c 32 6c 3d
       0.114989944 0.08117478 -0.09571513 0.057665393
000390 35 10 29 3d 53 c2 12 be 07 3e 5d be fe ff a9 bd
       0.04127522 -0.14331941 -0.21605693 -0.0830078
0003a0 0c 3e a4 3d 71 5a 80 bd 24 c0 a5 bd d1 f8 ae bb
       0.08019647 -0.0626725 -0.080932885 -0.00533972
0003b0 b4 ab fa 3c 6d b6 59 3d 27 16 23 3d 75 a0 0b 3d
       0.030599453 0.05315249 0.039816048 0.03408857
0003c0 bf a4 8f 3d f5 12 03 3d cf 21 31 3d ec a1 ff bc
       0.07013845 0.0320005 0.043245133 -0.03120514
0003d0 26 14 b3 3c 2a f1 ae 3d c6 7e 4d 3d e7 66 88 3d
       0.021860193 0.08542092 0.05016973 0.06660252
0003e0 37 5f 0d 3c 25 f9 f0 3c 68 1e b6 bb ed 24 77 3c
       0.008628658 0.029415676 -0.005557824 0.015084487
0003f0 d1 a5 40 3d 5e b9 79 bd 16 4f ae 3d d7 a5 e6 bc
       0.047033135 -0.060967796 0.08511178 -0.02815525

6.bias f4 [128]
000000 55 cb a5 bd f6 bd 02 be da 6d 56 bd 5b 0c 92 ba
       -0.08095423 -0.12767777 -0.052350856 -0.0011142598
000010 65 26 87 be 95 68 d0 bd e5 a7 6c bd 61 fe d7 bc
       -0.2639648 -0.101761974 -0.057777304 -0.026366415
000020 71 0e 1a bd 28 ed 2e bb b8 6c 06 bd 10 ae 60 bd
       -0.03761143 -0.002669165 -0.032818526 -0.0548535
000030 21 81 6a bd d3 bb 68 bc 66 50 23 bd 17 fd 9b bc
       -0.057252053 -0.014204937 -0.039871596 -0.019041581
000040 97 df e6 bd 73 b0 e2 3a ba 2f 33 bc 74 b2 f9 bd
       -0.11273115 0.0017295018 -0.010936672 -0.1219224
000050 89 1f 40 bd a7 74 9a bd 50 9f 09 be a2 f1 bc bc
       -0.046905074 -0.07541781 -0.13439679 -0.023064438
000060 dd c6 de bc 07 f7 fc bd f3 20 c2 bb 86 08 ab 3c
       -0.027194435 -0.12351804 -0.005924338 0.020878088
000070 96 4a 9d bc c5 a7 80 bc 4b 87 e9 3c 7c aa 09 be
       -0.019200604 -0.015704999 0.028506896 -0.13443941
000080 16 05 74 be d6 b9 14 3b 0c 81 20 bd 50 33 19 be
       -0.23830065 0.0022693775 -0.03918557 -0.1496098
000090 f6 f2 81 bd b2 71 33 bd 3b 66 3d be f4 02 11 bd
       -0.06345169 -0.0438096 -0.18496029 -0.035403207
0000a0 aa 05 88 bb d0 7f 12 bd c2 1b 0b bd af 1d 0b bd
       -0.004151066 -0.035766423 -0.03396202 -0.033963855
0000b0 d4 bf cd bc 22 84 62 3d 11 a4 12 3b 0a 2c 33 bc
       -0.025115885 0.055301793 0.0022375623 -0.010935793
0000c0 6e f1 58 be 0d 08 94 bd da 18 12 3d 9d e0 0b bd
       -0.21185848 -0.07228098 0.03566823 -0.034149755
0000d0 b3 8a 01 be c8 cf 57 bd 12 b2 46 bc 1a af cb bc
       -0.12650566 -0.05268839 -0.012127416 -0.024863768
0000e0 cb 76 d1 bd 89 44 64 bd 97 73 2a 3c 6e fd 8d be
       -0.10227736 -0.055729423 0.010403535 -0.27732414
0000f0 20 20 13 bd 3b fb cf bc 5b 52 56 bd ce f4 b5 bd
       -0.03591931 -0.02538835 -0.052324634 -0.088845834
000100 bc ed 28 bd d5 ab 8e bd 7b 9c ca bd 75 b5 85 bd
       -0.041242346 -0.06966368 -0.098931275 -0.06528751
000110 21 1c e8 bd 52 56 bd bd 6d 16 e1 bc 19 ea b9 3c
       -0.1133349 -0.0924498 -0.027476514 0.022694634
000120 c8 e5 d4 39 69 57 df bc d9 c9 05 bd 35 15 e2 bd
       0.0004060699 -0.02726336 -0.0326632 -0.11039201
000130 8f 37 14 bd e4 53 a0 bc db 1e 26 be da 98 19 bd
       -0.036185797 -0.019571252 -0.16222708 -0.037499286
000140 d8 e7 b5 bc 1d 1f ae bd aa 1f fd bc cb 88 55 bd
       -0.022205278 -0.08502028 -0.030898888 -0.05213241
000150 74 d9 87 3c 88 2c 9b bd 71 b9 65 be 87 23 17 3b
       0.016583182 -0.07576853 -0.22434022 0.0023061947
000160 b6 1b 4a 3d 70 bb 54 bd e2 7b 27 be 40 1d f4 3b
       0.049342833 -0.051936567 -0.16355851 0.007449776
000170 7c 3a f3 bd 0f 8a a6 bc 45 41 23 bb 76 27 89 3c
       -0.118763894 -0.020329503 -0.002491073 0.01674245
000180 dc d0 c4 bc c4 8c 84 bc 07 9f 4d 3b 52 9b 85 be
       -0.024025373 -0.016180404 0.0031375305 -0.26095062
000190 80 b9 ab bc 4e 6d a7 bc 9c 28 34 3d 7c d1 fb 3b
       -0.020962477 -0.020437863 0.04398404 0.0076848846
0001a0 b7 69 d1 3c 1a 52 e2 bc 5e d7 43 bd c5 1a 91 3c
       0.025563104 -0.02762704 -0.047812812 0.01771296
0001b0 fc 1c 18 3c 7e c1 4b bd cc 69 ac bc d7 e4 57 bc
       0.009284254 -0.049745075 -0.021046542 -0.013177118
0001c0 7a 40 46 bd 8d cb df bb b7 9c 1b bd 19 cf 15 bd
       -0.048401333 -0.006829685 -0.03799125 -0.036574457
0001d0 f9 c1 c0 bd b9 00 9d bd 77 0d 51 bd 5d 30 4a bd
       -0.09411997 -0.076661535 -0.05103823 -0.04936253
0001e0 b7 1a f1 bb cd bc 0f bd 28 46 2d 3c 51 05 97 3a
       -0.007357921 -0.035092164 0.010575809 0.001152197
0001f0 d4 ee 65 bd ae 5a cb bd 4f b9 c4 bc 8e d5 0a bc
       -0.056135967 -0.09929405 -0.024014143 -0.008473767

9.weight f4 [1, 512]
000000 54 fa 15 3d f2 d1 73 be 76 aa 1c b9 65 e1 98 3d
       0.036615685 -0.23810557 -0.00014940821 0.074648656
000010 ec 3d 9e 3e d7 2b b1 bc e5 b1 6c 3a 10 43 4f bd
       0.30906618 -0.02162735 0.0009029194 -0.050601065
000020 69 19 99 be 65 6e 48 be a5 62 1d 3d 31 c7 4b 3d
       -0.299022 -0.19573362 0.038424153 0.04975051
000030 dd ef 10 bd de f5 06 3e 79 6c 01 3c f4 8d c0 be
       -0.035385 0.13179728 0.007899397 -0.37608302
000040 2d 8b 43 3b 36 fc b4 bd 32 0d a8 3e 8c f2 a0 bc
       0.0029837594 -0.08837168 0.32822567 -0.019646905
000050 c9 81 0a 3b 7a 37 3f 3d 7d 69 a0 3d bc a2 ae be
       0.0021134487 0.046683766 0.0783262 -0.3410853
000060 b0 01 ee 3d ed fd c6 3d a5 55 08 bd 60 16 fb 3c
       0.116214156 0.09716401 -0.033284802 0.030650318
000070 1b a1 d7 3e 90 e3 e9 bd 1c 2f 61 bc 97 20 88 ba
       0.421151 -0.11420357 -0.013744142 -0.0010385689
000080 e3 20 d7 3d 3f f1 2c bb a0 5a 07 bf da 68 f3 3c
       0.105043195 -0.002638891 -0.5287266 0.029713083
000090 08 e4 c7 3e 8c 23 fe 3d c8 78 02 bd 14 d1 87 3e
       0.39041162 0.12409124 -0.031853467 0.265267
0000a0 1d fc f3 3c da 9f 4b bd 45 77 2b bc e0 7c fc bc
       0.029783303 -0.049712993 -0.010465448 -0.030821264
0000b0 75 45 09 3c 41 ea cb 3d c8 9d f6 be 94 8a 1a 3a
       0.008378376 0.0995679 -0.48167253 0.00058952835
0000c0 9c e3 31 be 9d 06 ba 3d 13 b6 c4 3e ad b3 ab be
       -0.17371982 0.09083293 0.38420162 -0.3353552
0000d0 2e 00 e4 bb 82 93 d8 3c fe c1 69 bd 85 df 95 be
       -0.0069580292 0.026437525 -0.05706977 -0.29272094
0000e0 43 fa b7 3a 32 d8 a8 3e f1 66 8d 3c aa 6c c8 3c
       0.0014036376 0.32977444 0.017261 0.024465878
0000f0 eb 65 5e be 3a 32 b8 3d 69 02 87 be eb 40 ee 3d
       -0.21718566 0.08993955 -0.26369026 0.11633476
000100 54 09 7d 3d 11 d6 1e be fe 4b 01 bf 85 71 a6 3b
       0.061776474 -0.15511347 -0.5050658 0.0050794506
000110 ac ca fa bd c6 9c d4 3d 16 08 24 be 22 06 81 be
       -0.12245688 0.10381465 -0.1601871 -0.2519999
000120 24 9a a5 3d 07 33 d1 3d 7b 6d 94 be d8 d8 52 be
       0.080860406 0.10214811 -0.28989777 -0.20590532
000130 cf 3e e0 bd ba 8b 3d be 03 68 a9 3c 84 5a f5 3d
       -0.1094948 -0.18510333 0.02067948 0.11980155
000140 a4 e3 32 3c c2 7c c9 3d f0 e0 0a be 94 c4 f2 3a
       0.010918532 0.09838249 -0.1356237 0.001852172
000150 ee 16 44 bd e6 8d ef 39 4d 31 3d 3d 96 c6 42 3c
       -0.04787343 0.00045691355 0.046189595 0.011888167
000160 18 b4 22 be 4a b1 2e 3c ef 01 7c 3e b7 1c 8e 3c
       -0.15889013 0.010662386 0.24610113 0.017347677
000170 82 e3 79 3e 79 26 84 bd 20 7e 61 3e 76 7c 8c 3d
       0.24403194 -0.064526506 0.22020769 0.068596765
000180 58 68 67 bd a7 0c c3 be 86 d1 7e be e5 82 e8 3d
       -0.056495994 -0.3809559 -0.24884614 0.11353091
000190 1b f2 c1 3d 65 42 db be 78 6f 17 bd 03 65 ca 3e
       0.09470006 -0.42824093 -0.03697154 0.3953019
0001a0 46 ca 03 3b c8 ef e6 3d 24 4a a6 be af 5d f6 3d
       0.0020109578 0.112762034 -0.3247844 0.120295875
0001b0 69 f0 4c 3d 95 30 96 be 92 42 36 bd 70 e2 a3 3e
       0.05003396 -0.2933394 -0.04449708 0.32008696
0001c0 e9 b7 b9 bc 4f 11 d4 be 9a d6 a7 3b ac 04 8d 3e
       -0.022670703 -0.41419455 0.005122018 0.27542627
0001d0 75 eb 38 bd b3 ec ce 3c f2 68 4e be 0a 65 02 3e
       -0.045146424 0.025259351 -0.20157221 0.12733856
0001e0 d7 d9 62 3d 1e 30 a7 be 60 8c a3 be 36 6a 1f 3e
       0.05538353 -0.32653898 -0.31943035 0.1556786
0001f0 19 a8 0f 3b 86 7f 03 be 10 fc 0a 3e 87 47 08 bd
       0.0021920262 -0.12841615 0.13572717 -0.03327134
000200 fd 1d 02 3e 0f 8c 75 be 33 41 2e 39 cb 9d 34 3c
       0.12706752 -0.2397921 0.00016618222 0.011023949
000210 4a ff a2 be 65 70 f3 3d a2 da 05 3e 4a fe c0 be
       -0.31835395 0.11886672 0.13071683 -0.37694007
000220 2b ea 0a 3e 0c b6 8d bd f4 7d c9 3e aa ae 2e be
       0.1356589 -0.06919488 0.39353907 -0.17058817
000230 09 32 f7 3d 87 8a 0f 3d 47 99 42 be b4 12 e7 be
       0.1207009 0.03504422 -0.19003783 -0.45131457
000240 13 dd 33 bd 45 8c 03 bd 35 2a af bd 80 2f 34 3f
       -0.043912005 -0.032116193 -0.08552972 0.7038498
000250 92 1e a7 3b 2f 5d 7c be b2 ed a2 be 47 23 c3 bd
       0.00510008 -0.24644922 -0.31821972 -0.09528213
000260 84 4c 09 be d4 9d 2d 3a d7 54 bf bd 84 2b de 3e
       -0.13408095 0.00066229445 -0.09342354 0.43392575
000270 b1 08 8d be eb 65 4f 3e 8c c3 e7 3d 65 27 e9 be
       -0.27545694 0.20253722 0.113165945 -0.45537868
000280 2b d0 aa 3d 3a c3 cc bc 07 d8 7f be 62 04 c9 bb
       0.08340486 -0.024995435 -0.24984752 -0.0061345557
000290 d6 8b a5 3d d6 e1 b2 bd 1d 70 46 3d bf 60 cb be
       0.08083312 -0.08734481 0.048446763 -0.3972225
0002a0 c6 83 48 3a 5d 6d c2 3c 37 64 f2 3b 96 78 bb be
       0.00076490303 0.02373379 0.0073972004 -0.36615437
0002b0 80 a8 83 3d 9d c4 b8 be a6 d1 51 3d e3 3d 81 be
       0.06428623 -0.36087504 0.051225327 -0.25242528
0002c0 37 1e 2e bd 3c f2 e7 3d 70 65 93 be f3 dc 6c be
       -0.042509284 0.113254994 -0.28788328 -0.2313116
0002d0 ba e8 0a 3e 6f 35 9d be c9 e4 2e 3e da 52 59 3d
       0.1356534 -0.3070483 0.17079462 0.05305753
0002e0 57 5f c5 3e 2c 18 08 be 51 b2 fa bd a3 57 84 3c
       0.385493 -0.13290471 -0.122410424 0.01615507
0002f0 b1 85 02 3b 5d fc fd 3c 0b c4 ae 3c 6a bf d6 3e
       0.0019916112 0.031004125 0.021333715 0.41942912
000300 25 87 39 3d e8 69 aa 3e 6a 01 9b be 97 87 a8 bd
       0.0452949 0.33283925 -0.30274516 -0.08228987
000310 16 f1 92 3a e8 60 38 3b 30 7b 31 3d eb 2e da be
       0.0011210765 0.0028133933 0.04333037 -0.4261392
000320 9b b1 27 be 83 89 52 be d7 19 84 be 3f 0e 3d be
       -0.16376345 -0.20560269 -0.25800964 -0.18462466
000330 ce ea 5c 3e 89 de eb be 53 22 b8 be 13 b4 30 3d
       0.21573946 -0.46068218 -0.35963687 0.043140482
000340 43 cc 98 3a e1 76 ed 3c fd 25 de 3d 20 a3 c3 3a
       0.0011657554 0.02898735 0.108470894 0.0014925934
000350 b3 e5 9b 3e cb 0a 5f 3d 53 7e 30 3e b8 a5 da bc
       0.30448684 0.054453652 0.17235689 -0.026690349
000360 2f 6e cf bd c4 4f fb be 8f 78 d7 3c 0b ec 77 be
       -0.10128438 -0.49084294 0.026302604 -0.24211137
000370 db b7 3f 3c 37 ac aa 3c 24 7f 1f be fc 39 c8 be
       0.011701549 0.020834072 -0.15575844 -0.3910674
000380 41 c4 7c 3d 0a 38 42 3e 89 3b 00 3e 24 68 2e be
       0.0617106 0.1896669 0.12522711 -0.17031914
000390 eb 7c 46 3d 8c fa c0 be 4e ed 5e bd 0e ae 07 3f
       0.048458975 -0.37691152 -0.05442553 0.5299996
0003a0 f7 0e 81 3e fe d5 03 bd 29 ff f0 bd 96 b9 58 3d
       0.2520673 -0.0321865 -0.11767418 0.052911364
0003b0 bb 5e b9 bd 71 dd 05 3b 3f 29 5c 3b 5a 44 a7 3e
       -0.090512715 0.0020426179 0.003359392 0.32669336
0003c0 85 b9 61 be 91 5e 9d 3d 10 e4 84 be 04 65 98 3d
       -0.22043426 0.07684053 -0.25955248 0.07441142
0003d0 ec c6 fc bd c3 88 a0 bb 4b 2c 10 be 72 a2 e3 bc
       -0.12342629 -0.004899116 -0.14079396 -0.02778742
0003e0 44 6a 0e be a9 f3 f9 3b 7d ee b5 3e 85 30 e9 3d
       -0.13907725 0.0076279235 0.35533515 0.113862075
0003f0 41 a9 d4 3a 13 f4 3e 3b c8 9a c5 3a 17 db f8 3a
       0.0016224758 0.0029137179 0.0015076036 0.0018986192
