trained/g_state_dict.pt (torch_old, 925139 bytes, 25 tensors)

0.weight f4 [512, 110]
0.12494033 -0.16508721 -0.10923243 -0.19224164 0.32848334 -0.049925823 0.108079165 -0.01746957
0.18189302 0.30064154 0.013513689 -0.091657415 -0.08017285 -0.03665962 -0.07985599 0.0029169554
0.002919582 -0.043218177 -0.098131545 -0.081776224 -0.068452284 -0.025971528 -0.023746157 -0.02893763
0.036913753 -0.017262882 0.049434 0.059636846 0.009101926 -0.044181284 0.061693475 0.018746031
0.03579508 0.015251225 0.0023144481 -0.066409715 -0.029435325 0.007977199 -0.048489623 -0.012161147
-0.047514293 0.052051473 0.012981404 -0.019018993 -0.10923955 -0.0091098985 0.026994783 0.0055342494
-0.08236315 0.084212795 0.0052381414 0.07514446 0.014761746 -0.018204983 0.033933852 0.046576556
-0.038703773 -0.0586624 0.04068784 -0.0066068554 -0.0012987927 -0.06345974 0.0018119894 0.01343294
0.101790965 -0.0031863793 -0.07332494 -0.029654093 0.077641256 0.033991545 -0.02629709 -0.12942512
-0.025240418 0.058058 -0.04159301 0.07924629 -0.040554725 0.11327332 -0.051715046 0.056400485
-0.011905349 -0.083282344 0.05132908 -0.021784563 -0.11001079 0.036664788 0.03097406 -0.0374018
-0.04094738 0.048743628 -0.011078013 -0.04031039 -0.021457711 -0.056714255 -0.051812846 0.009301085
0.0077050556 0.042706057 0.010387741 -0.016254706 0.026030656 -0.08327756 -0.017625596 -0.012275717
0.03973637 0.06932329 -0.00067066506 0.005500434 0.048868254 -0.028561547 -0.10152996 0.28332776
-0.034609493 0.3124737 -0.059550017 -0.049126595 0.19079241 -0.052950006 -0.31503302 -0.12814794
-0.0004988562 -0.007035246 0.0065842317 0.0640137 -0.03909846 0.035779856 -0.04645156 0.04210969
-0.025046201 0.0048665404 -0.008885788 0.028841585 0.08239013 -0.014082362 -0.0041258642 0.0002316273
0.02755791 -0.062972516 0.07887177 0.039327472 -0.073454045 -0.008666536 0.042746924 0.055263843
0.033230703 -0.01345042 -0.057251785 -0.08775529 0.0034544687 0.05778282 0.065194845 0.053941485
-0.027961385 0.00093977555 0.001848434 -0.008130381 0.042271204 0.025329491 0.053880084 -0.054298904
0.07170066 -0.005421102 0.024517942 0.12787633 -0.044052158 0.04008674 0.04839256 -0.01810529
-0.03859429 0.08674466 0.045259077 0.029215258 -0.0541676 -0.012631229 0.075916514 -0.03427655
0.014387063 -0.037568435 -0.00040535376 0.05961877 -0.093442865 0.054664925 0.07772178 0.062286172
0.070515715 0.053091682 -0.034523506 -0.07172597 0.07959564 0.002809402 -0.039423756 0.02124956
-0.036713324 -0.015083457 0.044073693 -0.07863354 0.05940374 0.059457786 -0.054096516 -0.0036631778
-0.08221784 -0.0013481838 -0.04540734 0.0011087519 0.019382214 -0.061926384 0.021076728 -0.01676093
-0.08930494 -0.03847519 -0.01670082 0.058118712 -0.055855617 -0.014778845 0.003983183 0.027797494
0.05670919 -0.052954145 -0.09500873 0.046759903 -0.14601922 0.006172585 0.101764336 -0.16535337
-0.33224705 -0.045749456 -0.35727024 0.19873466 0.19250272 -0.05525934 -0.024481365 -0.029366616
-0.06313845 -0.008894116 0.02511766 -0.06841676 -0.01971205 -0.02898303 -0.045489907 -0.030650247
0.06377769 0.06344174 -0.004025536 0.02611307 0.11672319 -0.02520223 0.022770422 0.083764255
-0.11141443 0.06894586 -0.07417922 0.05043227 -0.06362208 0.052081767 -0.023166737 -0.08708742
00000000: b7e0 ff3d 9f0c 29be 41b5 dfbd feda 44be
00000010: f82e a83e 057f 4cbd 9c58 dd3d 581c 8fbc
00000020: 2a42 3a3e b0ed 993e 8568 5d3c e2b6 bbbd
00000030: aa31 a4bd 6628 16bd 8a8b a3bd 642a 3f3b
00000040: 7556 3f3b 8b05 31bd 31f9 c8bd 4b7a a7bd
00000050: b630 8cbd 3ec2 d4bc 4d87 c2bc 9c0e edbc
00000060: e032 173d e36a 8dbc 4e7b 4a3d c445 743d
00000070: 3f20 153c 6ff7 34bd 4cb2 7c3d 4791 993c
00000080: dd9d 123d 46e0 793c ffad 173b d101 88bd
00000090: 5a22 f1bc ccb2 023c 0e9d 46bd 8c3f 47bc
000000a0: 599e 42bd ed33 553d f4af 543c b8cd 9bbc
000000b0: fcb8 dfbd af41 15bc 2a24 dd3c a658 b53b
000000c0: 03ae a8bd c277 ac3d b7a4 ab3b 57e5 993d
000000d0: 40db 713c 9e22 95bc 39fe 0a3d 0fc7 3e3d
000000e0: d987 1ebd fc47 70bd 4ba8 263d 527e d8bb
000000f0: 403c aaba 2ef7 81bd 4680 ed3a d515 5c3c
00000100: c877 d03d 93d2 50bb 632b 96bd 24ed f2bc
00000110: 6102 9f3d b83a 0b3d ff6c d7bc 0588 04be
00000120: fec4 cebc 3ace 6d3d 6f5d 2abd e14b a23d
00000130: b61c 26bd d8fb e73d 28d3 53bd 3204 673d
00000140: a70e 43bc ef8f aabd 713e 523d 8a75 b2bc
00000150: 564d e1bd d12d 163d 50bd fd3c a132 19bd
00000160: 71b8 27bd 66a7 473d 8e80 35bc 821c 25bd
00000170: 15c8 afbc 354d 68bd b539 54bd 9463 183c
00000180: b17a fc3b 8cec 2e3d 5831 2a3c 9728 85bc
00000190: 3e3e d53c 6d8d aabd 8e63 90bc 1720 49bc
000001a0: 9bc2 223d 5ef9 8d3d 92cf 2fba fc3c b43b
000001b0: 142a 483d e8f9 e9bc f1ee cfbd 5610 913e
000001c0: afc2 0dbd 8efc 9f3e b8ea 73bd f838 49bd
000001d0: 165f 433e 1be2 58bd 024c a1be 3739 03be
000001e0: acc5 02ba ec87 e6bb 8ac0 d73b 9d19 833d
000001f0: b525 20bd e68d 123d fe43 3ebd 367b 2c3d
00000200: b12d cdbc 8077 9f3b b295 11bc 3045 ec3c
00000210: 28bc a83d b5b9 66bc 4232 87bb fbe0 7239
00000220: 20c1 e13c bcf7 80bd 8687 a13d d815 213d
00000230: 136f 96bd 16fe 0dbc 6617 2f3d 575c 623d
00000240: eb1c 083d 275f 5cbc d980 6abd 0cb9 b3bd
00000250: 5e64 623b aead 6c3d e084 853d bff1 5c3d
00000260: 460f e5bc 455b 763a 2747 f23a 4a35 05bc
00000270: 9224 2d3d cb7f cf3c 5db1 5c3d 8768 5ebd
00000280: ccd7 923d 80a3 b1bb dad9 c83c 03f2 023e
00000290: 0970 34bd fe31 243d 4737 463d 8c51 94bc
000002a0: 0c15 1ebd 2fa7 b13d 9561 393d d654 ef3c
000002b0: d8de 5dbd 37f3 4ebc 1e7a 9b3d 9165 0cbd
000002c0: b7b7 6b3c 5ce1 19bd a985 d4b9 d032 743d
000002d0: f95e bfbd 54e8 5f3d 992c 9f3d c91f 7f3d
000002e0: 8b6a 903d aa76 593d 8568 0dbd 11e5 92bd
000002f0: 0a03 a33d f21d 383b ce7a 21bd 8f13 ae3c
00000300: b660 16bd 9b20 77bc 9e86 343d 9f0a a1bd
00000310: 5651 733d 028a 733d 4f94 5dbd ed11 70bb
00000320: d461 a8bd 8bb5 b0ba 0cfd 39bd 8a53 913a
00000330: 73c7 9e3c 85a6 7dbd 1aa9 ac3c 384e 89bc
00000340: 82e5 b6bd 2998 1dbd 28d0 88bc e30d 6e3d
00000350: dcc8 64bd f822 72bc 5c85 823b 92b7 e33c
00000360: e547 683d 72e6 58bd f093 c2bd 5087 3f3d
00000370: 1086 15be 6543 ca3b d269 d03d 6552 29be
00000380: 491c aabe c863 3bbd 20ec b6be 1981 4b3e
00000390: 6f1f 453e 9e57 62bd 258d c8bc 4292 f0bc
000003a0: bb4e 81bd a0b8 11bc 8dc3 cd3c 161e 8cbd
000003b0: 2a7b a1bc d26d edbc a053 3abd 3a16 fbbc
000003c0: e19d 823d beed 813d a5e8 83bb 14eb d53c
000003d0: 910c ef3d e874 cebc 0989 ba3c 988c ab3d
000003e0: 402d e4bd 7d33 8d3d 46eb 97bd 1192 4e3d
000003f0: 4b4c 82bd b153 553d 2bc8 bdbc e45a b2bd

0.bias f4 [512]
-0.0027685435 -0.059325747 -0.10601441 0.006338809 0.06622108 -0.0008060848 -0.11585845 -0.0719534
0.022243215 0.024723563 0.06955702 -0.1751909 -0.004870258 -0.00039147428 -0.07244699 0.18273167
0.025545916 -0.032852773 -0.05762827 -0.09399314 0.007758472 0.00051249383 0.09974918 -0.038604077
0.003569567 -0.00067162135 0.10976527 0.046731908 0.019147394 0.19038187 -0.021369522 -0.053242326
0.15922031 -0.035889607 -0.043349043 0.099027656 -0.11715702 0.10545801 -0.14922033 0.0030964294
0.0497931 -0.23867291 -0.007846242 0.060930308 -0.17715216 -0.005761642 0.111733094 0.09148068
-0.0764566 0.031043207 -0.029290294 0.085064806 -0.03767766 0.09066642 0.10959337 -0.15135029
-0.06816449 0.005340956 0.036763612 0.065361224 0.042631093 -0.16603 0.03179056 -0.054896783
-0.03561072 0.095714144 0.18299179 -0.05451549 0.10903953 0.0699094 -0.11556612 -0.10810767
-0.08250352 0.043403447 -0.0836445 -0.008067263 -0.08399368 0.053488288 -0.06694541 0.17448616
-0.074978024 0.018790163 -0.10950323 -0.07740125 -0.011702537 -0.13933639 0.025640057 -0.040555082
0.03254852 0.073316514 -0.14771836 0.055483423 -0.11798486 0.0024626192 0.09434877 -0.08945692
-0.0022269865 0.056702442 0.08344253 -0.028159395 0.09832813 -0.12504086 0.084143855 -0.061532658
0.100789316 -0.1627275 0.037506703 0.029771088 -0.19763961 -0.13323982 0.11432578 -0.07348138
-0.07924237 -0.06305397 0.004837869 0.12962 0.12261567 0.11024119 0.0067589334 -0.112405844
-0.13081999 0.10172841 0.023830296 0.10293212 -0.118675716 0.05512642 -0.037573162 0.12219363
-0.09855173 0.0009831121 -0.15367112 0.06749603 0.0813463 -0.04761808 0.08131101 0.13623358
0.1062726 0.062114198 0.08573023 -0.018459946 -0.19156165 -0.05538097 0.12086981 0.10976977
-0.15761723 0.067173995 -0.033514816 0.057882175 0.14274293 0.11436101 -0.06837204 -0.084069036
0.008623528 0.07371904 0.09689414 -0.055145152 0.13780317 -0.11633042 0.021573259 -0.10697167
0.102870815 0.092608534 -0.13450517 -0.04862434 -0.11387741 0.06380346 -0.18335028 0.1974899
-0.10258132 0.13466708 0.1536597 0.12090527 -0.069174014 0.087305546 -0.055135302 -0.0007043236
0.051221106 -0.082421295 0.046892926 -0.124513924 0.041802265 -0.18040651 -0.12741081 0.13967766
0.011235563 -0.06523449 0.0954125 0.049321815 0.089531094 -0.16996479 0.13283913 -0.10178001
0.17865817 -0.054172747 0.08804979 0.10459166 -0.06396483 0.11076333 0.070865445 -0.10683026
0.05047335 0.2680965 -0.07443649 -0.0071837497 -0.119930916 0.12393208 -0.14215165 0.05723985
-0.022350326 -0.1498788 0.054417673 0.1273792 -0.20081252 -0.17314874 0.27282265 0.04574712
-0.029372858 0.12734298 -0.04558855 0.028121851 0.08970722 0.11051874 -0.18432687 0.16271746
0.061025273 -0.0923823 -0.13325213 -0.058624312 0.1797602 0.11446849 0.01080844 -0.13853833
0.095207475 -0.019896705 0.20464589 -0.079409786 0.045159582 -0.054497845 0.12638743 -0.009927304
0.088981494 0.12556803 -0.13028036 -0.077895574 -0.021329068 -0.10713767 -0.059394255 -0.103390105
-0.13724914 -0.06085164 0.13259569 0.1265448 0.10719453 -0.13138166 -0.15109445 0.0043299985
00000000: 7470 35bb 8eff 72bd 151e d9bd c9b5 cf3b
00000010: eb9e 873d 6f4f 53ba 3247 edbd 4e5c 93bd
00000020: 6737 b63c 1289 ca3c e973 8e3d 3e65 33be
00000030: af96 9fbb ca3e cdb9 165f 94bd 031e 3b3e
00000040: ab45 d13c a190 06bd 9f0b 6cbd 7a7f c0bd
00000050: c83a fe3b e158 063a 4c49 cc3d 4f1f 1ebd
00000060: 66ef 693b bf0f 30ba 9dcc e03d f569 3f3d
00000070: ffda 9c3c 77f3 423e 230f afbc a014 5abd
00000080: a60a 233e fb00 13bd c48e 31bd 03cf ca3d
00000090: 05f0 efbd 5ffa d73d 37cd 18be 77ed 4a3b
000000a0: daf3 4b3d ac66 74be 868d 00bc 0f92 793d
000000b0: 6067 35be 28cc bcbb 52d4 e43d 395a bb3d
000000c0: 4795 9cbd 534e fe3c 33f2 efbc 7536 ae3d
000000d0: e453 1abd 51af b93d 7d72 e03d 92fb 1abe
000000e0: d399 8bbd 3003 af3b 7195 163d 1bdc 853d
000000f0: f19d 2e3d c503 2abe d136 023d 73db 60bd
00000100: 8cdc 11bd c705 c43d 3362 3b3e a24b 5fbd
00000110: 1e50 df3d a92c 8f3d eead ecbd 8e67 ddbd
00000120: 9bf7 a8bd d0c7 313d cf4d abbd 8e2c 04bc
00000130: e104 acbd 8916 5b3d ad1a 89bd 80ac 323e
00000140: 148e 99bd d4ed 993c 3b43 e0bd 8c84 9ebd
00000150: ffbb 3fbc 33ae 0ebe 190b d23c 161d 26bd
00000160: 9951 053d f826 963d 7b43 17be 9642 633d
00000170: 0ca2 f1bd e563 213b ee39 c13d 3135 b7bd
00000180: a2f2 11bb d240 683d ebe3 aa3d 88ae e6bc
00000190: 4260 c93d b60a 00be 9d53 ac3d ab09 7cbd
000001a0: a16a ce3d 0aa2 26be a1a0 193d 7fe2 f33c
000001b0: 0a62 4abe 0570 08be a223 ea3d 687d 96bd
000001c0: d349 a2bd 7122 81bd fd86 9e3b 1bbb 043e
000001d0: ed1d fb3d 22c6 e13d 0b7a dd3b 0935 e6bd
000001e0: adf5 05be fc56 d03d c137 c33c 13ce d23d
000001f0: 410c f3bd 3ecc 613d 51e6 19bd a740 fa3d
00000200: 7dd5 c9bd c5db 803a f65b 1dbe 5c3b 8a3d
00000210: e498 a63d 2d0b 43bd 6386 a63d d180 0b3e
00000220: 73a5 d93d 756b 7e3d 5593 af3d 5039 97bc
00000230: bd28 44be 28d7 62bd 978a f73d f9ce e03d
00000240: 6966 21be 8592 893d d546 09bd dc15 6d3d
00000250: 342b 123e 1b36 ea3d a406 8cbd 632c acbd
00000260: b349 0d3c 02fa 963d 6f70 c63d e2df 61bd
00000270: 461c 0d3e a53e eebd 67ba b03c f713 dbbd
00000280: efad d23d 8ba9 bd3d b9bb 09be 512a 47bd
00000290: 8f38 e9bd 63ab 823d 2dc0 3bbe cb3a 4a3e
000002a0: 2816 d2bd 2be6 093e f858 1d3e 2f9d f73d
000002b0: 1bab 8dbd 40cd b23d 8ed5 61bd 5ba2 38ba
000002c0: 39cd 513d 7fcc a8bd cc12 403d 2801 ffbd
000002d0: da38 2b3d 7cbc 38be fb77 02be a907 0f3e
000002e0: 5e15 383c a999 85bd a167 c33d ac05 4a3d
000002f0: 145c b73d 400b 2ebe fb06 083e 0a72 d0bd
00000300: 2bf2 363e 3ee4 5dbd 7353 b43d 2734 d63d
00000310: feff 82bd e2d7 e23d e721 913d d3c9 dabd
00000320: 25bd 4e3d f243 893e 2972 98bd a965 ebbb
00000330: 579e f5bd 1ad0 fd3d 3490 11be 5574 6a3d
00000340: 0818 b7bc d479 19be 11e5 5e3d b16f 023e
00000350: cca1 4dbe e74d 31be 69af 8b3e 5561 3b3d
00000360: 599f f0bc 3366 023e 0fbb 3abd cc5f e63c
00000370: 6bb8 b73d a657 e23d 2fc0 3cbe 689f 263e
00000380: a3f5 793d ee32 bdbd 3f73 08be 0c20 70bd
00000390: 0f13 383e 756e ea3d e215 313c fedc 0dbe
000003a0: 23fc c23d 6afe a2bc b18e 513e 99a1 a2bd
000003b0: 41f9 383d 2239 5fbd b56b 013e 22a6 22bc
000003c0: ee3b b63d e894 003e 3768 05be b787 9fbd
000003d0: 4cba aebc ff6a dbbd 6447 73bd 31be d3bd
000003e0: 0a8b 0cbe 923f 79bd 2ac7 073e f694 013e
000003f0: ce88 db3d ea88 06be 81b8 1abe a9e2 8d3b

2.weight f4 [128]
0.97468364 1.0269585 1.0304462 0.81997275 1.0052359 1.0350647 0.9330061 0.9130894
1.0501555 0.98153156 1.0579795 1.0333912 0.95007575 0.97489256 0.86183435 0.97755903
0.981419 1.0223913 0.99684495 1.0505675 0.94911736 1.1154872 1.0696229 1.0676886
1.0221137 1.0458846 1.0460945 1.1240916 1.0451565 1.0913348 0.96577114 0.9888013
0.97856724 1.050426 0.93299824 0.9340546 1.0231932 1.1039538 1.0305775 1.0272487
1.0671582 0.89069307 0.9027044 1.0095155 0.9937109 0.9692992 1.0112573 1.0222803
1.0398391 0.9568568 1.028146 1.0338175 0.9859915 0.9475184 1.0012453 1.0148265
1.016983 1.036169 0.95265234 0.99200696 1.009767 0.92501557 1.0381125 0.9191589
1.0105337 0.92626214 1.053468 1.0565255 0.9500563 1.0623863 0.96314025 0.90262926
1.0428954 0.92816585 1.0148374 0.98811454 0.9719585 1.0094192 1.0315589 0.92825055
0.9731527 1.013139 1.0993797 1.0460483 1.1081638 0.9989068 0.90500396 0.9779865
1.0320244 0.9657439 0.9754975 1.0076457 0.986719 0.94915205 0.9510564 0.9480926
1.0166968 1.014776 0.99357325 0.9200971 0.95064825 0.96623987 0.94840837 1.0940369
0.97145206 0.9345087 0.96645993 1.0236971 0.9793426 0.9174273 0.9256633 1.0323333
1.0535866 0.8943507 0.9239475 1.0390204 1.012389 0.9148711 0.9794659 0.9506587
0.9119628 0.950883 0.9796165 0.9575273 1.0030276 0.98801935 0.93472177 1.0449855
00000000: de84 793f 6073 833f a9e5 833f bce9 513f
00000010: 92ab 803f 007d 843f 7dd9 6e3f 3ac0 693f
00000020: 7f6b 863f a745 7b3f df6b 873f 2a46 843f
00000030: 2a38 733f 8f92 793f 2da1 5c3f 4f41 7a3f
00000040: 473e 7b3f b8dd 823f 3b31 7f3f ff78 863f
00000050: 5bf9 723f 49c8 8e3f 67e9 883f 05aa 883f
00000060: 9fd4 823f 8cdf 853f 6de6 853f 3ce2 8f3f
00000070: b0c7 853f dcb0 8b3f c73c 773f 1522 7d3f
00000080: 6283 7a3f 5c74 863f f9d8 6e3f 341e 6f3f
00000090: fff7 823f 5c4e 8d3f f7e9 833f e37c 833f
000000a0: a498 883f 7604 643f a317 673f ce37 813f
000000b0: d663 7e3f fe23 783f e170 813f 15da 823f
000000c0: 7319 853f 91f4 743f 4a9a 833f 2254 843f
000000d0: f069 7c3f 9190 723f ce28 803f d6e5 813f
000000e0: 802c 823f 30a1 843f 06e1 733f 2bf4 7d3f
000000f0: 0c40 813f d2cd 6c3f dfe0 843f ff4d 6b3f
00000100: 2b59 813f 841f 6d3f 0ad8 863f 3a3c 873f
00000110: e436 733f 46fc 873f 5c90 763f b612 673f
00000120: 997d 853f 479c 6d3f 31e6 813f 13f5 7c3f
00000130: 46d2 783f a634 813f 1f0a 843f d4a1 6d3f
00000140: 8920 793f 8aae 813f 79b8 8c3f e9e4 853f
00000150: 50d8 8d3f 5bb8 7f3f 57ae 673f 535d 7a3f
00000160: 6019 843f fe3a 773f 34ba 793f 89fa 803f
00000170: 9e99 7c3f a1fb 723f 6f78 733f 32b6 723f
00000180: 1f23 823f 2ee4 813f d15a 7e3f 7c8b 6b3f
00000190: af5d 733f 7f5b 773f e4ca 723f 6709 8c3f
000001a0: 15b1 783f f63b 6f3f eb69 773f 8208 833f
000001b0: 32b6 7a3f 84dc 6a3f 45f8 6c3f 7f23 843f
000001c0: eddb 863f 2bf4 643f d387 6c3f 9ffe 843f
000001d0: f695 813f fe34 6a3f 47be 7a3f 5e5e 733f
000001e0: 6576 693f 116d 733f 26c8 7a3f 8220 753f
000001f0: 3563 803f d6ee 7c3f ed49 6f3f 16c2 853f

2.bias f4 [128]
-0.050413266 0.012632278 0.020766677 0.056745775 -0.14579569 -0.13626905 -0.019831233 0.07948887
0.02717887 -0.021930566 0.029124998 0.06250366 0.045668315 -0.019812379 0.014838643 -0.075322546
0.13286674 0.0021983718 -0.13654485 0.011172828 -0.0032402747 0.0015285531 0.092723206 0.071937725
-0.049544506 -0.110798076 -0.008191308 0.08146385 -0.027599629 0.057890132 0.07706885 0.038935546
0.03782141 0.05669997 -0.11863096 0.010991755 0.084831506 -0.0029377586 -0.11660991 0.00048733337
-0.15181698 0.021683497 0.04155139 -0.06862453 -0.06907187 0.006123687 -0.11136175 0.006620627
0.013898955 0.07519875 -0.021361824 0.019856265 -0.00019416827 0.10124016 0.01216324 0.048560772
-0.0026364443 0.051023234 -0.07019328 -0.03751368 -0.01566634 -0.01598639 0.036904223 -0.04583121
0.029565766 0.0108342515 0.10573057 0.04833459 0.02557984 0.08105873 0.07085816 -0.09629453
0.0055654664 -0.03620619 -0.013133301 0.021784153 -0.1532823 -0.10421193 -0.07013294 0.024115724
-0.09634142 0.066624686 -0.06675881 -0.07753638 0.0025191964 0.022850301 -0.02911962 0.07761578
-0.030688835 0.017392889 0.023466358 -0.10742409 0.11947157 0.009698162 0.007235297 0.030691992
-0.022983285 -0.036797997 -0.093440376 -0.0036547303 -0.057985798 0.079543926 0.074338056 0.009108767
-0.016195247 0.11166019 0.17072052 0.0800837 -0.052516013 -0.04083818 0.059185393 0.11926384
0.023674974 0.038535345 -0.09205574 0.08473729 -0.12552485 -0.015131628 -0.032716822 -0.03276727
0.035880283 -0.0017052162 0.0027540014 0.01332738 0.014574036 -0.038075425 0.038240954 0.04987828
00000000: 247e 4ebd 9df7 4e3c e11e aa3c 426e 683d
00000010: 774b 15be 1d8a 0bbe 1c75 a2bc 10cb a23d
00000020: 39a6 de3c bba7 b3bc 8c97 ee3c eb01 803d
00000030: b30e 3b3d 924d a2bc c81d 733c b542 9abd
00000040: 380e 083e 8f12 103b 6ad2 0bbe 3d0e 373c
00000050: ca5a 54bb bb59 c83a aae5 bd3d 1654 933d
00000060: 2eef 4abd 1aea e2bd d634 06bc 85d6 a63d
00000070: 9e18 e2bc 341e 6d3d 46d6 9d3d e17a 1f3d
00000080: 9fea 1a3d 3a3e 683d caf4 f2bd c316 343c
00000090: 24bc ad3d 6987 40bb 2dd1 eebd c780 ff39
000000a0: e975 1bbe 97a1 b13c ca31 2a3d 058b 8cbd
000000b0: 8d75 8dbd 36a9 c83b a111 e4bd d8f1 d83b
000000c0: 71b8 633c cd01 9a3d fefe aebc 9ba9 a23c
000000d0: a699 4bb9 0057 cf3d 5448 473c a9e7 463d
000000e0: 32c8 2cbb bdfd 503d 7fc1 8fbd f2a7 19bd
000000f0: b256 80bc e4f5 82bc e228 173d 82b9 3bbd
00000100: e833 f23c 2582 313c 4589 d83d 7efa 453d
00000110: d08c d13c 1f02 a63d 151e 913d 1136 c5bd
00000120: 845e b63b f14c 14bd 0f2d 57bc ae74 b23c
00000130: 09f6 1cbe 106d d5bd dca1 8fbd 578e c53c
00000140: a74e c5bd 8672 883d d8b8 88bd 65cb 9ebd
00000150: 1a19 253b 8e30 bb3c 458c eebc 06f5 9e3d
00000160: 2767 fbbc 887b 8e3c 853c c03c 2901 dcbd
00000170: 83ad f43d 0ae5 1e3c 1216 ed3b c66d fb3c
00000180: 7147 bcbc 7fb9 16bd ab5d bfbd 3384 6fbb
00000190: 8482 6dbd ede7 a23d 8d3e 983d f03c 153c
000001a0: e5ab 84bc 19ae e43d 5cd1 2e3e ec02 a43d
000001b0: 081b 57bd ef45 27bd 626c 723d 9a40 f43d
000001c0: 05f2 c13c 3dd7 1d3d b887 bcbd bf8a ad3d
000001d0: 9689 00be a6ea 77bc 1302 06bd f936 06bd
000001e0: 34f7 123d 9081 dfba 7a7c 343b 155b 5a3c
000001f0: f0c7 6e3c faf4 1bbd 8ca2 1c3d 2b4d 4c3d

2.running_mean f4 [128]
-0.03870577 -0.010230058 0.056461032 0.011801656 -0.053885005 -0.038237598 0.028731264 0.075834386
0.05625604 -0.080048 -0.02465015 0.00144864 0.007329006 -0.05019244 -0.02486518 -0.002703047
0.08098142 -0.022429986 -0.006166199 0.015726674 -0.07174021 -0.00555428 -0.023831662 -0.03673121
0.01581032 -0.025235618 0.038986366 -0.06269299 -0.008912052 0.024288282 0.0040778085 0.06477594
-0.03988855 0.059281245 0.04967039 0.036957145 -0.045681134 0.036171973 0.07432405 -0.03663886
0.010404003 -0.031874016 0.11490093 -0.016739793 -0.0016065424 0.016755799 0.026867215 0.03448526
0.043830965 0.0036446778 0.10834763 0.011927715 -0.017322829 -0.01632598 0.025320835 0.034109592
-0.08918397 -0.0032890006 0.042635255 0.018899923 -0.021602947 -0.10956288 -0.014890741 -0.0641106
0.016073547 0.029108465 -0.01443255 0.06738483 0.0091565 0.012537076 0.033487618 -0.067191556
-0.046427824 0.013300764 -0.023643784 -0.026931498 0.03257984 0.03464407 0.06993381 -0.07067316
0.015995596 0.107116975 1.8639752e-05 0.018375162 0.029816005 0.013034947 0.024909297 0.09922847
0.02467953 -0.05022785 -0.005203859 -0.03885713 0.047498487 0.007804932 0.008181914 -0.01573044
-0.0688604 -0.015746852 -0.037490517 -0.0075584734 0.011584667 -9.808548e-05 0.05893071 -0.06716648
0.0040201624 -0.04643806 0.0039810524 -0.027390607 0.022998953 0.045677695 -0.0064063217 -0.056769855
-0.05426603 0.030450575 0.0011332834 -0.0036105702 -0.03744326 0.0026001083 -0.013315543 -0.056423407
-0.02423815 -0.050020672 0.02141417 -0.069226325 0.06419648 0.07616411 0.00796894 -0.007648361
00000000: f189 1ebd f99b 27bc af43 673d bc5b 413c
00000010: 86b6 5cbd 079f 1cbd d45d eb3c 0f4f 9b3d
00000020: bc6c 663d 35f0 a3bd 1def c9bc 4be0 bd3a
00000030: 2928 f03b 9796 4dbd 10b2 cbbc 9a25 31bb
00000040: 96d9 a53d 17bf b7bc d40d cabb 3ad5 803c
00000050: 88ec 92bd ad00 b6bb 9e3a c3bc 7773 16bd
00000060: a584 813c edba cebc 2bb0 1f3d 2f65 80bd
00000070: db03 12bc 38f8 c63c 239f 853b 3fa9 843d
00000080: 2d62 23bd e4d0 723d 2e73 4b3d 6060 173d
00000090: 241c 3bbd 1029 143d 3537 983d a112 16bd
000000a0: 8d75 2a3c 548e 02bd 2e51 eb3d e421 89bc
000000b0: 9e92 d2ba 7543 893c a218 dc3c 6a40 0d3d
000000c0: 1988 333d 8cdb 6e3b 5de5 dd3d 766c 433c
000000d0: 9be8 8dbc 10be 85bc a46d cf3c 80b6 0b3d
000000e0: 16a6 b6bd 468c 57bb 4ea2 2e3d 03d4 9a3c
000000f0: aaf8 b0bc 8162 e0bd 4bf8 73bc 6b4c 83bd
00000100: acac 833c e074 ee3c 8176 6cbc 0f01 8a3d
00000110: 2505 163c 4f68 4d3c 502a 093d ba9b 89bd
00000120: 1a2b 3ebd 73eb 593c 9cb0 c1bc 729f dcbc
00000130: 7072 053d f1e6 0d3d 7539 8f3d 17bd 90bd
00000140: 3209 833c 2560 db3d 905c 9c37 8287 963c
00000150: b240 f43c 8890 553c 950e cc3c 4c38 cb3d
00000160: ba2c ca3c b8bb 4dbd 2285 aabb a728 1fbd
00000170: c68d 423d 84c0 ff3b 6f0d 063c 20dd 80bc
00000180: ae06 8dbd 8bff 80bc a88f 19bd 12ad f7bb
00000190: 9dcd 3d3c 3eb3 cdb8 5461 713d 948e 89bd
000001a0: 91bb 833b d635 3ebd 7d73 823b 4462 e0bc
000001b0: 4d68 bc3c 8918 3b3d 1fec d1bb 8287 68bd
000001c0: 0f46 5ebd 7c73 f93c ae8a 943a 519f 6cbb
000001d0: 1b5e 19bd 9466 2a3b 6f29 5abc 3b1c 67bd
000001e0: 168f c6bc 7ae2 4cbd c56c af3c 88c6 8dbd
000001f0: 7279 833d eefb 9b3d 2890 023c 1a9f fabb

2.running_var f4 [128]
0.2838301 0.23677331 0.2287524 0.2840085 0.2535626 0.19094054 0.24577332 0.27243295
0.24073729 0.23464492 0.20628294 0.24841298 0.25735274 0.27098557 0.3326218 0.28546548
0.287935 0.2672513 0.2135311 0.18822476 0.27807084 0.18194775 0.22747388 0.25751206
0.24607754 0.23484777 0.21630551 0.20353065 0.21357739 0.22540452 0.34688115 0.2598526
0.2783942 0.21827844 0.2791056 0.28945094 0.22008456 0.2291266 0.217834 0.27765447
0.23063312 0.31090397 0.29543954 0.18783231 0.30509743 0.2510388 0.24803787 0.2682056
0.18671194 0.24814428 0.19699144 0.252441 0.25984192 0.29828742 0.29646674 0.2769556
0.22872058 0.22129288 0.2627549 0.24805762 0.2620531 0.2684132 0.27305752 0.31748915
0.30247524 0.278737 0.3213325 0.17003219 0.25180784 0.34644607 0.28991014 0.35445866
0.16392562 0.2674938 0.26679277 0.25447145 0.21780415 0.25793186 0.20623466 0.30644375
0.33994573 0.22829838 0.23035695 0.18909684 0.1568169 0.2798178 0.25697425 0.2557173
0.2049989 0.2352524 0.3115743 0.26827255 0.28553697 0.27003002 0.24649839 0.29437944
0.2896855 0.23989286 0.30492797 0.23917237 0.28936523 0.2850285 0.30470777 0.20549007
0.25425515 0.27682927 0.2630431 0.21305706 0.22825953 0.2624325 0.3240649 0.26358098
0.2561537 0.24701639 0.28120863 0.23911534 0.25577444 0.28037655 0.24006319 0.23125046
0.31409883 0.30214265 0.24379034 0.26972306 0.29416454 0.24093167 0.28374338 0.252829
00000000: 2e52 913e b474 723e 123e 6a3e 9069 913e
00000010: f5d2 813e eb85 433e 00ac 7b3e 557c 8b3e
00000020: d683 763e c246 703e d63b 533e f95f 7e3e
00000030: bdc3 833e 9fbe 8a3e 684d aa3e 8828 923e
00000040: 376c 933e 2ad5 883e e6a7 5a3e febd 403e
00000050: 4d5f 8e3e 8350 3a3e eaee 683e 9fd8 833e
00000060: c0fb 7b3e ef7b 703e 317f 5d3e 576a 503e
00000070: 08b4 5a3e 71d0 663e 689a b13e 660b 853e
00000080: af89 8e3e 6284 5f3e eee6 8e3e ea32 943e
00000090: d95d 613e 2aa0 6a3e e00f 5f3e ba28 8e3e
000000a0: 172b 6c3e ce2e 9f3e da43 973e 1d57 403e
000000b0: bb35 9c3e 2888 803e a4fd 7d3e 3f52 893e
000000c0: 6a31 3f3e 8919 7e3e 20b8 493e f23f 813e
000000d0: 000a 853e 21b9 983e 7dca 973e 20cd 8d3e
000000e0: ba35 6a3e 9a9a 623e cf87 863e d102 7e3e
000000f0: d32b 863e 746d 893e 32ce 8b3e f08d a23e
00000100: 09de 9a3e 9eb6 8e3e b285 a43e eb1c 2e3e
00000110: f5ec 803e 6161 b13e 1a6f 943e 9b7b b53e
00000120: 1edc 273e f3f4 883e 1099 883e 154a 823e
00000130: 0d08 5f3e a50f 843e 2e2f 533e 32e6 9c3e
00000140: 5e0d ae3e 0dc7 693e b1e2 6b3e 9aa2 413e
00000150: 9c94 203e 4744 8f3e 2192 833e 61ed 823e
00000160: 3beb 513e 01e6 703e ab86 9f3e 055b 893e
00000170: e731 923e 6041 8a3e 136a 7c3e e7b8 963e
00000180: a851 943e 79a6 753e 851f 9c3e 9ae9 743e
00000190: ae27 943e 41ef 913e a802 9c3e fd6b 523e
000001a0: bb2d 823e 91bc 8d3e 96ad 863e a12b 5a3e
000001b0: debc 693e 8d5d 863e d6eb a53e 16f4 863e
000001c0: 9426 833e ddf1 7c3e 94fa 8f3e a7da 743e
000001d0: def4 823e 848d 8f3e 20d3 753e eccc 6c3e
000001e0: 90d1 a03e 71b2 9a3e 2da4 793e 2419 8a3e
000001f0: bc9c 963e cbb6 763e d046 913e cd72 813e

3.weight f4 [128, 64, 4, 4]
-0.015558533 -0.031262845 0.008276681 -0.024773922 -0.01516028 -0.005500838 -0.020438906 -0.018273551
-0.051392373 0.0010344902 0.04335418 0.06131233 0.045505255 0.017841872 0.013842116 -0.0027143646
0.027603382 -0.0061593894 0.06271756 0.011402714 0.02320549 0.08831557 -0.0054327054 -0.034769073
-0.029706055 0.037475333 0.04297801 -0.014442655 0.024843924 -0.050502636 -0.045635063 0.012944405
0.00460357 0.09958474 -0.052901197 0.020146308 0.028178992 0.08776286 0.018319791 -0.055529658
-0.0004463418 -0.057926126 0.034311935 0.031975128 -0.04285289 0.048385825 -0.039023336 0.040726017
-0.017391639 -0.06452284 0.026024634 0.029779114 -0.0031580299 0.001263818 0.0667352 0.03724932
0.028942956 0.07149461 -0.047286764 0.017444847 -0.0047451565 -0.0016614298 0.032554884 -0.0073301205
-0.050485726 0.035399266 0.006387885 -0.07064309 0.016702138 0.06976828 0.0064083263 0.03991605
0.00013128312 0.071582325 0.007975754 -0.00036764375 -0.010407525 0.061990816 0.017606001 0.010114384
-0.022679824 -0.012440991 0.027445674 0.023993501 -0.009351473 0.03649311 0.0057948134 0.009547864
0.007876785 -0.051068455 -0.022163318 0.069299765 -0.025737856 0.02466604 -0.057307404 -0.031266227
-0.0039704717 0.03886937 0.00783897 0.021916555 0.007776195 -6.7859866e-05 -0.01647627 0.03743242
-0.068389736 -0.06981412 -0.005081258 0.0031056753 0.023630058 -0.00568629 -0.046688255 0.0010450248
-0.050009184 -0.020980887 -0.029656578 0.023769697 0.04563386 -0.027064737 -0.01765766 0.007418902
0.049825422 -0.0624339 0.00515164 -0.021657383 0.00230323 0.042637397 -0.019117175 -0.084296115
-0.043360792 -0.0034094749 0.021979999 -0.015625121 0.07406477 0.0040092715 -0.05443301 0.0061690174
-0.0407462 0.02654237 0.016562456 -0.03444589 -0.048364457 -0.03892405 0.015809234 0.058779992
-0.06613142 0.01324907 -0.026926346 0.030969903 0.012188031 0.04686136 -0.0279456 -0.055431917
-0.008885342 -0.0005386142 0.037287198 -0.034535374 0.029820368 0.0521346 -0.027418522 -0.027929123
0.017164886 0.020332437 -0.05451044 -0.002186621 0.04037482 0.014131247 0.02028914 0.011871828
0.046315476 0.08745875 -0.050457433 0.0311154 -0.0012567488 -0.023511318 -0.018914115 0.0023037058
0.0011502611 0.014475085 0.0021301308 -0.015324566 0.017844485 0.04710824 -0.007258327 0.039900865
0.10797898 0.034408633 -0.008874579 -0.0063146637 -0.016352246 -0.03390646 -0.017453438 0.0014227537
-0.0031213139 0.00021371873 -0.033434566 -0.020759769 -0.009068979 0.0035734384 -0.0033421242 -0.040658593
0.036473088 0.0018167822 -0.033871047 -0.0077918507 0.049686972 0.049490586 -0.053752277 -0.03791162
0.01623342 -0.051220812 -0.026839504 -0.05583765 -0.044576127 0.022077011 0.064323135 -0.06479261
-0.0355899 -0.035869297 -0.052787352 0.060428377 0.034477584 0.018344317 -0.013139488 0.08656135
-0.037350845 -0.037248306 -0.0026444898 0.010461837 0.050606683 0.058106318 -0.051595077 0.014047295
0.031416357 0.053090744 -0.0066986736 0.04157238 0.054171264 -0.026531493 -0.09305041 -0.019343195
-0.052421384 0.029205045 0.05389112 0.010421616 0.016391052 -0.012252453 -0.031052353 -0.016893612
-0.010919972 -0.03438443 -0.03312938 0.0321403 0.016980857 0.10242358 0.06930787 -0.04986725
00000000: 38e9 7ebc 780d 00bd eb9a 073c aef2 cabc
00000010: d362 78bc 6040 b4bb 7e6f a7bc 6ab2 95bc
00000020: cf80 52bd bb97 873a 2794 313d a322 7b3d
00000030: b863 3a3d 1e29 923c 0bca 623c 7be3 31bb
00000040: 7d20 e23c b4d4 c9bb 1072 803d 73d2 3a3c
00000050: 7119 be3c cbde b43d d604 b2bb 046a 0ebd
00000060: 1d5a f3bc bc7f 193d b609 303d e3a0 6cbc
00000070: 7c85 cb3c dadb 4ebd d5eb 3abd c514 543c
00000080: 8bd9 963b 16f3 cb3d edae 58bd df09 a53c
00000090: a1d7 e63c 04bd b33d 6313 963c 1173 63bd
000000a0: fb02 eab9 f243 6dbd ac8a 0c3d 5af8 023d
000000b0: 8386 2fbd 3730 463d efd6 1fbd 53d0 263d
000000c0: e978 8ebc 8d24 84bd 9d31 d53c 54f3 f33c
000000d0: f3f6 4ebb b2a6 a53a 77ac 883d be92 183d
000000e0: c719 ed3c c46b 923d c4af 41bd 7fe8 8e3c
000000f0: 427d 9bbb 55c4 d9ba 4558 053d 8231 f0bb
00000100: 1fca 4ebd d2fe 103d 7751 d13b 53ad 90bd
00000110: ecd2 883c ace2 8e3d f0fc d13b 037f 233d
00000120: 0ba9 0939 c199 923d bdac 023c 4fc0 c0b9
00000130: 5384 2abc 15ea 7d3d 763a 903c cdb6 253c
00000140: 0acb b9bc 4cd5 4bbc c0d5 e03c 058e c43c
00000150: ec36 19bc cd79 153d 6be2 bd3b a56e 1c3c
00000160: a10d 013c 282d 51bd d98f b5bc 09ed 8d3d
00000170: 32d8 d2bc 6f10 ca3c 2bbb 6abd 0411 00bd
00000180: bb1a 82bb 7d35 1f3d 066f 003c 598a b33c
00000190: 74cf fe3b fd4f 8eb8 3ef9 86bc bd52 193d
000001a0: eb0f 8cbd b5fa 8ebd ae80 a6bb 9688 4b3b
000001b0: d393 c13c 0f54 babb 2f3c 3fbd 37f9 883a
000001c0: 6ed6 4cbd 1ce0 abbc 5af2 f2bc abb8 c23c
000001d0: 92ea 3a3d deb6 ddbc cca6 90bc 431a f33b
000001e0: be15 4c3d b0ba 7fbd 17cf a83b d36a b1bc
000001f0: caf1 163b 8da4 2e3d 9f9b 9cbc 71a3 acbd
00000200: 169b 31bd 7f71 5fbb 660f b43c 4100 80bc
00000210: 45af 973d 3560 833b 26f5 5ebd 7825 ca3b
00000220: 7de5 26bd 626f d93c fdad 873c 2217 0dbd
00000230: cf19 46bd d36e 1fbd 5e82 813c 4ac3 703d
00000240: e96f 87bd a112 593c a494 dcbc 98b4 fd3c
00000250: 4fb0 473c b3f1 3f3d 2cee e4bc 940c 63bd
00000260: d393 11bc c931 0dba 76ba 183d f774 0dbd
00000270: d849 f43c 178b 553d cf9c e0bc 9ecb e4bc
00000280: 609d 8c3c 3690 a63c 5746 5fbd 6a4d 0fbb
00000290: 1160 253d bf86 673c 6935 a63c 0e82 423c
000002a0: 4cb5 3d3d 931d b33d 74ac 4ebd b9e5 fe3c
000002b0: 7eb9 a4ba cf9a c0bc c6f1 9abc c5f9 163b
000002c0: 5cc4 963a e828 6d3c aa99 0b3b e313 7bbc
000002d0: 992e 923c 92f4 403d 43d7 edbb 176f 233d
000002e0: 1524 dd3d 11f0 0c3d af66 11bc 3deb cebb
000002f0: 25f5 85bc 80e1 0abd 83fa 8ebc b17b ba3a
00000300: f58e 4cbb af19 6039 aff2 08bd 6410 aabc
00000310: 0e96 14bc 5930 6a3b 8a07 5bbb a089 26bd
00000320: ce64 153d 1821 ee3a 5ebc 0abd c852 ffbb
00000330: 9184 4b3d a4b6 4a3d 592b 5cbd 3749 1bbd
00000340: f3fb 843c eacc 51bd 85de dbbc 05b6 64bd
00000350: 7595 36bd d9da b43c d9bb 833d fdb1 84bd
00000360: b7c6 11bd afeb 12bd 8d37 58bd bf83 773d
00000370: 5e38 0d3d d246 963c 0247 57bc 1447 b13d
00000380: 33fd 18bd ae91 18bd 2d4f 2dbb 2068 2b3c
00000390: f448 4f3d e400 6e3d 5c55 53bd a026 663c
000003a0: 70ae 003d ae75 593d 8c80 dbbb cd47 2a3d
000003b0: b0e2 5d3d 9358 d9bc 3791 bebd 9f75 9ebc
000003c0: ceb7 56bd 6b3f ef3c efbc 5c3d 6dbf 2a3c
000003d0: 8746 863c 83be 48bc 8161 febc 7964 8abc
000003e0: afe9 32bc b0d6 0cbd acb2 07bd 8ca5 033d
000003f0: 701b 8b3c 74c3 d13d 49f1 8d3d 9a41 4cbd

3.bias f4 [64]
0.012721458 0.004163371 -0.009176762 -0.025714576 0.015934203 0.022760283 0.02736941 0.0025535377
0.019145945 0.023836413 0.02273539 0.0051935455 -0.026756227 -0.018047633 -0.033756208 -0.020450292
0.017350247 -0.013582322 -0.028008098 -0.0014650727 0.002125022 -0.0074868323 0.013347879 -0.01755376
-0.0027041857 0.010503159 0.00896438 -0.022295194 0.010631426 -0.00087053713 0.020347996 -0.018551085
0.0048947814 0.018335579 0.026245778 0.0067707896 -0.027719947 -0.0008150868 -0.000213445 -0.0125429835
-0.021189265 -0.011580169 -0.0039580646 0.01636466 -0.0030470798 -0.0046506226 -0.030427076 -0.0065685604
0.015457346 0.021438062 -0.0041277655 -0.025775135 -0.01588409 0.020050522 0.02181412 0.0048240456
-0.02445877 0.003294847 -0.008824277 -0.022281123 0.024671702 0.0043929215 -0.0230762 -0.00670184
00000000: aa6d 503c e36c 883b 215a 16bc 60a7 d2bc
00000010: 7288 823c c673 ba3c d035 e03c 4159 273b
00000020: f5d7 9c3c 9544 c33c 923f ba3c 9e2e aa3b
00000030: e02f dbbc a1d8 93bc f343 0abd 5f87 a7bc
00000040: 1b22 8e3c 6388 5ebc 3d71 e5bc af07 c0ba
00000050: f443 0b3b 1a54 f5bb 10b1 5a3c e7cc 8fbc
00000060: b538 31bb 7115 2c3c 56df 123c 69a4 b6bc
00000070: 6f2f 2e3c c234 64ba d7b0 a63c 72f8 97bc
00000080: 6764 a03b 7f34 963c 6301 d73c 80dd dd3b
00000090: f114 e3bc 8dab 55ba 35d0 5fb9 1681 4dbc
000000a0: 1c95 adbc c0ba 3dbc a7b2 81bb 2e0f 863c
000000b0: 84b1 47bb 4064 98bb 3442 f9bc 143d d7bb
000000c0: cf40 7d3c e09e af3c 3542 87bb 6026 d3bc
000000d0: 5a1f 82bc fe40 a43c 86b3 b23c 0713 9e3b
000000e0: c25d c8bc 5cee 573b b393 10bc e786 b6bc
000000f0: 4f1c ca3c 7ff2 8f3b 4d0a bdbc 1c9b dbbb

4.weight f4 [64]
1.1123255 0.8983439 1.0649344 1.0313512 0.95804405 1.0190756 1.1158203 0.98413044
0.9469424 0.98136497 1.0101072 0.921983 0.9194181 0.9537787 0.96245277 1.0534102
1.0102473 0.97761774 0.9714725 0.9635014 1.0061516 0.9963169 1.0281792 1.111372
0.99258643 1.0129117 0.9082007 1.0060605 1.0161371 0.95336664 1.0248885 0.9842471
1.0374272 0.9566901 1.0059873 1.0366137 0.93370837 0.9606748 1.1445864 0.94371164
1.022758 1.0029007 0.9705374 0.9708998 0.9344157 1.1056836 0.91409767 0.9534724
0.95238715 1.1699673 1.0163401 0.95171106 1.0383554 1.0448169 1.0744908 0.9241119
1.0319089 0.93785644 1.0088617 1.0316213 0.9979784 0.8964873 0.8865545 0.93921936
00000000: af60 8e3f def9 653f c54f 883f 5103 843f
00000010: 6042 753f 1271 823f 33d3 8e3f f9ef 7b3f
00000020: d16a 723f bc3a 7b3f 314b 813f 1407 6c3f
00000030: fc5e 6b3f d72a 743f 4e63 763f 25d6 863f
00000040: c94f 813f 2845 7a3f 6cb2 783f 07a8 763f
00000050: 93c9 803f a00e 7f3f 609b 833f 7041 8e3f
00000060: 251a 7e3f 17a7 813f d77f 683f 97c6 803f
00000070: c810 823f d60f 743f 8c2f 833f 9ef7 7b3f
00000080: 6aca 843f a4e9 743f 31c4 803f c2af 843f
00000090: 8307 6f3f c9ee 753f cf81 923f 1697 713f
000000a0: bce9 823f 0d5f 803f 2475 783f e48c 783f
000000b0: de35 6f3f 0a87 8d3f 4e02 6a3f c416 743f
000000c0: a5cf 733f 7dc1 953f 6f17 823f 56a3 733f
000000d0: d4e8 843f 8fbc 853f ea88 893f 9992 6c3f
000000e0: 9715 843f 5c17 703f 6122 813f 2b0c 843f
000000f0: 837b 7f3f 3180 653f 3cf5 623f ae70 703f

4.bias f4 [64]
-0.18358888 -0.089792624 -0.048770785 0.0053098267 -0.16175947 -0.022677535 -0.0043152063 -0.070206776
-0.07352582 -0.10885412 -0.09961658 -0.072615236 -0.18211335 -0.04829238 -0.12362427 -0.16940764
-0.13322483 -0.12888217 -0.0882329 -0.00075171987 -0.13668513 -0.071553275 -0.13146713 -0.21064456
-0.103343956 -0.027669653 -0.15946773 -0.15651986 -0.093118526 -0.108080514 -0.01827536 -0.14515181
-0.055054635 -0.13289252 -0.06322143 -0.05882429 0.00086987036 -0.1245071 -0.16474807 -0.0952939
-0.111205675 -0.03285145 -0.19713497 -0.17234485 -0.106897265 -0.03427567 -0.15262337 -0.158426
-0.16127984 -0.16372268 -0.079216145 -0.069667995 -0.12263545 -0.07461773 -0.010775698 -0.149862
0.042670205 -0.16283564 -0.20774916 -0.012981477 -0.095156804 -0.101666294 -0.037753515 -0.19535135
00000000: b9fe 3bbe 32e5 b7bd e0c3 47bd 0efe ad3b
00000010: 46a4 25be 3dc6 b9bc 9366 8dbb 92c8 8fbd
00000020: b594 96bd e9ee debd c703 ccbd 4cb7 94bd
00000030: ec7b 3abe 3bce 45bd b92e fdbd 3279 2dbe
00000040: 176c 08be b0f9 03be 73b3 b4bd 110f 45ba
00000050: 30f7 0bbe 868a 92bd 529f 06be 35b3 57be
00000060: ffa5 d3bd 78ab e2bc 824b 23be be46 20be
00000070: edb4 bebd 5159 ddbd 35b6 95bc ada2 14be
00000080: f880 61bd fa14 08be 3d7a 81bd bdf1 70bd
00000090: 0308 643a 94fd febd b8b3 28be 7329 c3bd
000000a0: cdbf e3bd 3e8f 06bd c0dd 49be 2b7b 30be
000000b0: f4ec dabd a564 0cbd 4d49 1cbe 6d3a 22be
000000c0: 8b26 25be eba6 27be 133c a2bd 18ae 8ebd
000000d0: 4b28 fbbd 2ed1 98bd 8e8c 30bc 6d75 19be
000000e0: f4c6 2e3d 63be 26be 32bc 54be 43b0 54bc
000000f0: 92e1 c2bd 6b36 d0bd 6ea3 1abd 2f0a 48be

4.running_mean f4 [64]
-0.091795035 0.041355878 -0.22289021 -0.18414092 -0.0046265344 -0.27694714 -0.18604197 -0.0046725045
-0.054291084 0.19877313 -0.22876342 0.06839375 -0.2536416 0.16124012 -0.20231573 -0.17423557
0.05185415 -0.039954375 0.1740156 0.033013556 -0.0075781136 0.16094215 -0.026414134 0.0072627147
-0.11012357 0.16744044 -0.13983236 -0.14737038 -0.048653547 0.12991162 -0.017227208 0.024332605
0.017515665 -0.118825205 -0.1362095 -0.031474546 -0.14123702 -0.22279547 -0.19139555 -0.10670355
-0.21100296 -0.18850979 -0.06393261 0.057669863 -0.037713792 -0.28907868 -0.10550613 0.00042343527
-0.14125387 0.07989271 -0.020269554 -0.19761918 -0.3401372 -0.09997178 -0.29678896 0.14798523
-0.4773805 -0.040494055 -0.09595045 -0.11481889 -0.12335245 0.16734217 -0.21393447 -0.05506983
00000000: 09ff bbbd c864 293d 553d 64be 708f 3cbe
00000010: 2f9a 97bb 04cc 8dbe c981 3ebe cf1b 99bb
00000020: 5460 5ebd 2f8b 4b3e f540 6abe 0612 8c3d
00000030: 50dd 81be 211c 253e db2b 4fbe cf6a 32be
00000040: 0465 543d 33a7 23bd 2531 323e 3939 073d
00000050: d351 f8bb 05ce 243e 7462 d8bc 11fc ed3b
00000060: 7788 e1bd 8275 2b3e 3730 0fbe 43e8 16be
00000070: f148 47bd 8d07 053e 1320 8dbc 2c55 c73c
00000080: 037d 8f3c a15a f3bd 817a 0bbe 74eb 00bd
00000090: 70a0 10be 7f24 64be 32fd 43be 6487 dabd
000000a0: 2911 58be b608 41be 1aef 82bd 3c37 6c3d
000000b0: c779 1abd 1f02 94be 9913 d8bd 8500 de39
000000c0: dba4 10be ca9e a33d 560c a6bc af5c 4abe
000000d0: 7726 aebe 01be ccbd b9f4 97be 7189 173e
000000e0: 386b f4be 18dd 25bd ab81 c4bd 2b26 ebbd
000000f0: 36a0 fcbd bf5b 2b3e a311 5bbe e790 61bd

4.running_var f4 [64]
2.168507 1.1939971 2.4344845 1.9515158 1.5119298 2.5539625 2.1776898 1.9053833
1.6525375 1.4839811 2.2563803 2.0005019 1.8877206 2.005569 2.3841925 1.5908668
2.072176 1.9474028 1.9438188 2.2401168 2.023567 1.2596192 1.208568 2.0544608
1.8226329 1.5510288 2.7270532 1.3874018 2.0244179 2.8625138 1.5368289 1.9670335
1.7494079 2.356944 2.5502572 1.2850997 1.6083523 3.2389326 1.5060325 1.8550924
2.351166 2.2268133 2.2057126 1.8573892 1.9616458 2.5778072 1.7801768 1.1970772
2.862938 1.8957624 1.1526209 1.579553 2.2029374 1.7184933 2.3853683 2.4467568
1.7423294 2.3870733 2.120461 2.1263754 1.7736025 1.6122919 2.0602288 1.80488
00000000: d2c8 0a40 e6d4 983f 98ce 1b40 45cb f93f
00000010: ea86 c13f 1f74 2340 455f 0b40 9ae3 f33f
00000020: 5986 d33f 18f3 bd3f 8968 1040 3908 0040
00000030: d4a0 f13f 3e5b 0040 9c96 1840 86a1 cb3f
00000040: 889e 0440 7f44 f93f 0ecf f83f 135e 0f40
00000050: 1f82 0140 343b a13f 5bb2 9a3f 497c 0340
00000060: 094c e93f 1d88 c63f 0a88 2e40 6296 b13f
00000070: 1090 0140 6d33 3740 cfb6 c43f c1c7 fb3f
00000080: 99ec df3f 2cd8 1640 6a37 2340 267e a43f
00000090: 7dde cd3f ac4a 4f40 acc5 c03f ab73 ed3f
000000a0: 8179 1640 1c84 0e40 652a 0d40 eebe ed3f
000000b0: 3617 fb3f cbfa 2440 d5dc e33f d339 993f
000000c0: 603a 3740 58a8 f23f 1589 933f cb2e ca3f
000000d0: edfc 0c40 97f7 db3f e0a9 1840 aa97 1c40
000000e0: a604 df3f cfc5 1840 a2b5 0740 8916 0840
000000f0: 6805 e33f 955f ce3f cada 0340 4f06 e73f

6.weight f4 [64, 32, 4, 4]
-0.051364508 -0.0065143034 -0.020091334 0.118098445 -0.0023333535 0.06806869 -0.03122178 -0.029418996
-0.010671498 0.12366077 0.061836056 -0.069365405 -0.013387222 -0.040987864 -0.011437937 -0.0032446187
0.0014814573 0.035406865 -0.0111405635 -0.01751017 0.03171939 0.058624737 -0.17295194 -0.11403779
-0.058393497 -0.07979733 -0.19927657 -0.04986687 0.02198948 0.0017101528 0.037124664 0.04859747
0.02901829 -0.03948564 0.030484762 0.033289175 0.021302938 -0.049018525 0.061171085 -0.051687572
-0.016845696 0.11512704 -0.06910713 0.003051386 0.037849274 0.070148446 -0.0502919 -0.0050382125
-0.016839312 -0.011382049 -0.0054339673 0.0026933018 0.04468394 0.06747767 -0.024130289 -0.07687486
-0.0062564756 -0.037790105 0.13404024 0.067800425 -0.06632262 0.02695844 -0.062465776 -0.014702677
0.016328605 -0.03451571 0.014388702 0.011764807 0.041671127 0.07150743 0.0056659956 -0.11853278
-0.05552727 -0.046843268 -0.090168886 -0.05136122 -0.032181963 -0.13438888 -0.037397917 -0.06178309
0.015504547 0.024696512 0.0050701415 0.048006613 -0.0050950292 -0.037352182 0.08222007 -0.124602504
-0.015264419 0.071603656 -0.123814814 0.011011071 0.014401057 -0.017021379 -0.005169676 -0.0070678694
-0.0007581336 -0.008675047 -0.00026083837 -0.0029588945 -0.03659811 -0.016216794 -0.14914365 -0.09493004
-0.007631289 0.043922704 -0.13179517 -0.028313775 -0.030688843 -0.020964567 0.00069088285 0.0082030315
0.04011178 0.020430647 0.04886897 0.042505212 -0.044960875 0.010569156 0.012865954 -0.021113148
-0.060655054 0.017499423 -0.053986978 -0.0044215894 0.008241204 -0.0059985337 -0.063672625 -0.018860389
-0.046579596 -0.056516528 -0.023986626 0.06577602 -0.029470667 -0.057906136 0.0732594 0.0038508237
-0.026817102 -0.05335315 0.11740117 -0.013134834 0.027842164 -0.00040667088 -0.06522171 0.0016943874
-0.023395736 0.0097695105 0.054184243 -0.06342993 0.018859113 0.03244188 -0.012520832 -0.07883226
-0.06990707 -0.026808165 -0.08080833 -0.12877151 0.03791732 -0.04815548 -0.028110534 0.002711196
-0.043002926 -0.0031134537 0.010909857 -0.011083352 -0.04621087 -0.04352677 0.11202219 0.0014179883
0.01632275 0.043114856 0.037397336 0.0024665971 -0.011382299 -0.03298462 -0.052906785 -0.030717967
-0.02993738 0.09190942 0.049500484 0.008905338 -0.05912542 0.02261637 0.0975504 -0.015092696
0.03321917 -0.03824478 -0.040688355 0.021007001 0.03926092 0.06930307 0.0713912 0.009308045
-0.05389565 -0.022236144 0.046950668 0.002563683 0.007501818 0.04811397 0.042909287 -0.003643304
0.055819467 -0.023769852 0.08252307 -0.032855593 -0.007571384 -0.05311175 -0.056864437 -0.08024663
-0.003679273 -0.021267124 0.011457408 -0.04930967 -0.07834332 -0.076022215 0.07064082 0.036961135
0.008676973 0.056407366 0.17937633 0.009332671 -0.022737153 -0.023012673 -0.043622553 -0.0121459495
0.025846973 -0.02822434 -0.016328817 -0.034557525 -0.043468945 -0.09380842 -0.032911964 0.06501619
-0.012559461 0.08121872 -0.07092055 0.039662424 -0.018055186 -0.012015879 0.04480739 -0.027895505
-0.025278535 -0.007808518 0.07997007 -0.040680375 -0.00028173288 0.07965188 -0.05809264 -0.082653485
0.039958656 -0.012304519 -0.0027307365 -0.10954628 -0.05188065 -0.053287838 0.016471706 -0.033106
00000000: 9763 52bd f075 d5bb 9596 a4bc 99dd f13d
00000010: 2deb 18bb 9967 8b3d d2c4 ffbc 1b00 f1bc
00000020: 82d7 2ebc dc41 fd3d ce47 7d3d 730f 8ebd
00000030: 1456 5bbc e4e2 27bd 2f66 3bbc aba3 54bb
00000040: 752d c23a ca06 113d e986 36bc 7d71 8fbc
00000050: 31ec 013d 7e20 703d 501a 31be a58c e9bd
00000060: 052e 6fbd c86c a3bd 280f 4cbe 3441 4cbd
00000070: 4823 b43c 3527 e03a 0810 183d 240e 473d
00000080: c4b7 ed3c b2bb 21bd 2ebb f93c 3b5a 083d
00000090: 8083 ae3c a6c7 48bd 888e 7a3d 59b6 53bd
000000a0: fcff 89bc bac7 eb3d 0a88 8dbd c3f9 473b
000000b0: d707 1b3d fda9 8f3d e1fe 4dbd 9717 a5bb
000000c0: 99f2 89bc c67b 3abc 6c0f b2bb 1b82 303b
000000d0: 8206 373d bc31 8a3d e2ac c5bc 9170 9dbd
000000e0: 1f03 cdbb ccc9 1abd d841 093e f3da 8a3d
000000f0: 27d4 87bd f2d7 dc3c 1ddc 7fbd 7fe3 70bc
00000100: 91c3 853c 5860 0dbd 97be 6b3c 2dc1 403c
00000110: 58af 2a3d 7d72 923d d1a9 b93b 50c1 f2bd
00000120: 9070 63bd bade 3fbd 77aa b8bd 2560 52bd
00000130: 3cd1 03bd 3d9d 09be 8f2e 19bd 4410 7dbd
00000140: c906 7e3c 5750 ca3c 6e23 a63b 95a2 443d
00000150: 34f4 a6bb 9afe 18bd ff62 a83d 992f ffbd
00000160: 9d17 7abc f0a4 923d 9f92 fdbd c767 343c
00000170: 69f2 6b3c 6b70 8bbc 6366 a9bb 9699 e7bb
00000180: 7cbd 46ba c921 0ebc 22c1 88b9 03ea 41bb
00000190: e6e7 15bd 15d9 84bc 1db9 18be ae6a c2bd
000001a0: e40f fabb 4be8 333d 50f5 06be 4af2 e7bc
000001b0: 2b67 fbbc e2bd abbc 5d1c 353a 0266 063c
000001c0: 404c 243d 2c5e a73c d42a 483d f219 2e3d
000001d0: e528 38bd 412a 2d3c b9cb 523c 7bf5 acbc
000001e0: 6f71 78bd f35a 8f3c 7321 5dbd fbe2 90bb
000001f0: 1d06 073c 598f c4bb cb66 82bd 1a81 9abc
00000200: 3fca 3ebd e07d 67bd 9a7f c4bc 94b5 863d
00000210: 786c f1bc fc2e 6dbd 0609 963d 1a5e 7c3b
00000220: 8aaf dbbc d588 5abd 0670 f03d 7d33 57bc
00000230: 4015 e43c 7136 d5b9 f692 85bd 3516 de3a
00000240: 6aa8 bfbc 4c10 203c 4cf0 5d3d 8de7 81bd
00000250: 6d7e 9a3c c7e1 043d 2d24 4dbc cf72 a1bd
00000260: 702b 8fbd cc9c dbbc d67e a5bd aedc 03be
00000270: 314f 1b3d ae3e 45bd 1048 e6bc 52ae 313b
00000280: d623 30bd 160b 4cbb 42bf 323c f396 35bc
00000290: 9c47 3dbd 2049 32bd e46b e53d cbdb b93a
000002a0: 4ab7 853c 3499 303d f32d 193d a2a6 213b
000002b0: d27c 3abc e21a 07bd c9b4 58bd 3fa4 fbbc
000002c0: 3d3f f5bc 023b bc3d 05c1 4a3d b2e7 113c
000002d0: 7f2d 72bd f745 b93c 81c8 c73d 5b47 77bc
000002e0: d310 083d 8fa6 1cbd d5a8 26bd e016 ac3c
000002f0: 0fd0 203d c5ee 8d3d 8d35 923d c580 183c
00000300: afc1 5cbd 9328 b6bc 584f 403d 7703 283b
00000310: cfd1 f53b 2713 453d a6c1 2f3d 80c4 6ebb
00000320: f4a2 643d feb8 c2bc db01 a93d 9693 06bd
00000330: 5f19 f8bb b58b 59bd afea 68bd 5858 a4bd
00000340: f51f 71bb 6438 aebc dab7 3b3c f0f8 49bd
00000350: 7672 a0bd 89b1 9bbd 22ac 903d 8f64 173d
00000360: dd29 0e3c 690b 673d 6eae 373e 0fe8 183c
00000370: 4443 babc 1385 bcbc 90ad 32bd ceff 46bc
00000380: 08bd d33c bb36 e7bc 03c4 85bc 318c 0dbd
00000390: 7e0c 32bd a11e c0bd b2ce 06bd 3527 853d
000003a0: 33c6 4dbc 0056 a63d cb3e 91bd 1175 223d
000003b0: 78e8 93bc 40de 44bc f487 373d 1d85 e4bc
000003c0: ee14 cfbc 99de ffbb 59c7 a33d 77a0 26bd
000003d0: 8cb5 93b9 8620 a33d 8cf2 6dbd 3b46 a9bd
000003e0: b0ab 233d e598 49bc 28f6 32bb cd59 e0bd
000003f0: ce80 54bd 5944 5abd acef 863c 289a 07bd

6.bias f4 [32]
0.009924823 -0.025064835 -0.013992499 0.011130879 0.020029688 0.028036848 -0.0009350098 0.007818358
0.025348714 -0.0054413816 0.044651713 -0.0005468852 0.023341905 -0.019529242 -0.04155463 0.038559236
0.0034982609 0.036916584 -0.011740501 0.0032992302 -0.028171653 0.015242158 0.010646169 0.035491087
-0.028380694 -1.9010371e-05 0.0052602696 0.054630306 -0.0197877 -0.023651036 -0.023027753 -0.009220619
00000000: ba9b 223c c554 cdbc cb40 65bc 4a5e 363c
00000010: 4d15 a43c 88ad e53c 721b 75ba 9218 003c
00000020: 1ba8 cf3c 9e4d b2bb b7e4 363d d85c 0fba
00000030: 8637 bf3c cafb 9fbc 3035 2abd 4af0 1d3d
00000040: 1443 653b d835 173d 3b5b 40bc e637 583b
00000050: 3dc8 e6bc 3fba 793c 456d 2e3c 1a5f 113d
00000060: a17e e8bc 7678 9fb7 575e ac3b 07c4 5f3d
00000070: d119 a2bc d1bf c1bc b3a4 bcbc 1412 17bc

7.weight f4 [32]
0.9604872 1.0381405 0.94972074 1.0006188 1.0925995 1.0021307 1.0329345 0.9794289
1.0996754 0.97212094 1.0155833 1.0481417 1.0662707 1.0458957 0.9185606 0.9263581
1.0163823 0.9359487 1.0759951 0.97610575 0.9240244 0.91055363 0.92616206 0.917026
1.018535 1.0621548 1.0402565 0.9321488 1.05611 1.0790863 0.9967579 0.90015316
00000000: 7de2 753f cae1 843f e620 733f 4714 803f
00000010: 4dda 8b3f d245 803f 3337 843f dabb 7a3f
00000020: 2ac2 8c3f ebdc 783f a2fe 813f 8229 863f
00000030: 8f7b 883f e9df 853f ca26 6b3f ce25 6d3f
00000040: d118 823f 569a 6f3f 35ba 893f 11e2 793f
00000050: dd8c 6c3f 0b1a 693f f518 6d3f 37c2 6a3f
00000060: 5b5f 823f b0f4 873f 2027 853f 4ea1 6e3f
00000070: 9d2e 873f 801f 8a3f 872b 7f3f 7070 663f

7.bias f4 [32]
-0.02197028 0.0030534526 -0.06653471 -0.12378769 0.10973894 -0.03207117 -0.16830924 -0.15556
-0.06808093 -0.07168963 -0.048199996 -0.1353462 0.030852031 -0.1409048 -0.090387546 -0.025055755
-0.013676853 -0.05412092 0.05784723 -0.02670042 -0.036215506 -0.097327955 -0.08800345 -0.080639705
0.050565995 0.041349176 -0.07465061 -0.09196446 -0.047265995 -0.03429103 0.009583969 -0.1538184
00000000: 04fb b3bc 6f1c 483b 5a43 88bd 6784 fdbd
00000010: cfbe e03d 0f5d 03bd 4259 2cbe 1f4b 1fbe
00000020: 046e 8bbd 03d2 92bd 5c6d 45bd 3298 0abe
00000030: 66bd fc3c 5949 10be 1b1d b9bd ba41 cdbc
00000040: e114 60bc e6ad 5dbd 38f1 6c3d d7ba dabc
00000050: b656 14bd e153 c7bd 273b b4bd 6e26 a5bd
00000060: 4a1e 4f3d c15d 293d 6be2 98bd dd57 bcbd
00000070: fd99 41bd c074 0cbd 1406 1d3c 9282 1dbe

7.running_mean f4 [32]
-0.30655932 -0.52368796 -0.4501316 -0.16228242 -0.4107652 -0.4569493 -0.4784982 -0.3370327
-0.35460502 -0.51579887 -0.2918098 -0.40581706 -0.44862685 -0.2501308 -0.5992919 -0.41453204
-0.47958237 -0.48967072 -0.5469563 -0.44355717 -0.576088 -0.34909967 -0.49481562 -0.60895216
-0.8262429 -0.4261716 -0.23092967 -0.42262167 -0.4177765 -0.3720575 -0.41177037 -0.36568877
00000000: 58f5 9cbe 6a10 06bf a677 e6be 5d2d 26be
00000010: d14f d2be 42f5 e9be b7fd f4be 8d8f acbe
00000020: ca8e b5be 650b 04bf 1868 95be 41c7 cfbe
00000030: 6bb2 e5be 2511 80be 326b 19bf 8b3d d4be
00000040: d28b f5be 1fb6 fabe 5405 0cbf ed19 e3be
00000050: 817a 13bf 31bd b2be 7958 fdbe 4ae4 1bbf
00000060: a884 53bf 2a33 dabe d478 6cbe de61 d8be
00000070: cde6 d5be 527e bebe 91d3 d2be 8f3b bbbe

7.running_var f4 [32]
0.69389397 0.5491982 0.55290246 0.43850663 0.5973006 0.6398374 0.41303623 0.29969162
0.40764257 0.46168372 0.47160658 0.3085677 0.6069957 0.38401872 1.1421806 0.61586887
0.63693917 2.0777352 0.79674464 0.52170455 0.8676753 0.44861856 0.5802114 1.2758433
1.4747361 0.5391222 0.33012947 0.4675821 0.45927554 0.43311784 0.52419364 0.3544662
00000000: 09a3 313f 4198 0c3f 048b 0d3f f183 e03e
00000010: b1e8 183f 62cc 233f 7c79 d33e 2e71 993e
00000020: 87b6 d03e cf61 ec3e 6b76 f13e 96fc 9d3e
00000030: 1264 1b3f 1a9e c43e f932 923f 95a9 1d3f
00000040: 720e 233f 9df9 0440 75f7 4b3f 6e8e 053f
00000050: f81f 5e3f 55b1 e53e bc88 143f d54e a33f
00000060: 27c4 bc3f ea03 0a3f bb06 a93e ec66 ef3e
00000070: 2a26 eb3e 9fc1 dd3e 8e31 063f 987c b53e
